actor_final.pth (torch_old, 57972 bytes, 18 tensors)

bn0.weight f4 [33]
0	0x3f2eb7fe	0.682495
1	0x3efc9561	0.49332717
2	0x3f65cb78	0.89763594
3	0x3d36dcfd	0.044644345
4	0x3da78ca9	0.08181126
5	0x3deeb38a	0.11655338
6	0x3c4d663e	0.0125365835
7	0x3de69ad4	0.1126
8	0x3e0056e1	0.12533142
9	0x3d66bf42	0.05633474
10	0x3e43fdb8	0.19139755
11	0x3e4ea1e9	0.20178951
12	0x3e911098	0.28332973
13	0x3fa4c10e	1.2871416
14	0x3f364e2b	0.71213025
15	0x3fa83fd9	1.3144485
16	0x3df4a377	0.11945241
17	0x3dc77be6	0.097404286
18	0x3dcabb73	0.09899034
19	0x3e395b74	0.18101293
20	0x3e5d3c5e	0.2160506
21	0x3e211466	0.15730438
22	0x3dfc7dca	0.1232868
23	0x3f2f5062	0.6848203
24	0x3f070480	0.5274124
25	0x3f4b245a	0.79352343
26	0x3fa76cdf	1.30801
27	0x3ede3c3e	0.43405336
28	0x3f88d97f	1.0691375
29	0x3ea178ce	0.3153748
30	0x3ec11894	0.37714064
31	0x3f1ddb52	0.6166278
32	0x3f88bd03	1.0682682

bn0.bias f4 [33]
0	0x3c7a35bc	0.0152716
1	0x3a87c722	0.0010359029
2	0xbb188416	-0.0023272089
3	0xbbb216ec	-0.0054348614
4	0x3c0f327a	0.008740062
5	0x3b39f20d	0.0028373033
6	0x3a695f0f	0.00089024095
7	0x3aca8c2e	0.0015453154
8	0xbb5c26f6	-0.0033592558
9	0x3a0ada91	0.0005296851
10	0x3bc6dab2	0.006068551
11	0xbb214bfe	-0.0024611945
12	0x3b3e8cf9	0.0029075725
13	0x3b4643e7	0.0030252875
14	0x3c379241	0.011204303
15	0xb9fcb38b	-0.00048198955
16	0xbbd47e05	-0.0064847493
17	0x3b6ebe12	0.0036429209
18	0x3a73fb40	0.00093071535
19	0x3b1c4b43	0.002384857
20	0x3b017ba4	0.0019757533
21	0xbae4a7b2	-0.0017444997
22	0x3aa509d5	0.0012591431
23	0x3b176487	0.002310069
24	0x3c6e5e9e	0.014548926
25	0xbb79cf3a	-0.0038117901
26	0xbc2769b7	-0.0102180755
27	0x3a29f586	0.0006483424
28	0xbbe60f8f	-0.0070208977
29	0x3ac60fe1	0.0015110933
30	0x3addacb9	0.0016912437
31	0x396a4bf2	0.00022344271
32	0x3b0eb1a1	0.0021773356

bn0.running_mean f4 [33]
0	0x3e0a1d9a	0.13487855
1	0xc03bc968	-2.9341679
2	0xbea9face	-0.3319916
3	0x3f6ba318	0.92045736
4	0x3c8968d2	0.016773615
5	0x3a3ac986	0.0007125366
6	0xbd3e3582	-0.046437748
7	0xbb2bb981	-0.0026203098
8	0x3c0a5603	0.008443358
9	0xba996769	-0.0011703792
10	0xba8185f1	-0.0009881837
11	0x39be5c44	0.00036308367
12	0x3c447c82	0.011992576
13	0xbe9ee9b2	-0.3103767
14	0xc045c58f	-3.090183
15	0xbcae352a	-0.021265585
16	0xbd380b89	-0.044932876
17	0x3d331a5e	0.043726318
18	0xbd00e698	-0.03146991
19	0xbea5f38b	-0.3241237
20	0x3ce54216	0.027985614
21	0xbc908c61	-0.017645063
22	0x3c1ba2b3	0.00949924
23	0xbc39cd34	-0.011340428
24	0x3dcdb97a	0.100451425
25	0x3cf4aca8	0.029867485
26	0xbe74f3a4	-0.23921067
27	0xbf7ffffc	-0.99999976
28	0xbbd61397	-0.006533097
29	0x00000000	0.0
30	0x3f7ffffc	0.99999976
31	0x00000000	0.0
32	0x3b00db85	0.0019662094

bn0.running_var f4 [33]
0	0x401b4d87	2.426607
1	0x3e899f96	0.26879567
2	0x40937fc5	4.609347
3	0x3c8898b6	0.01667438
4	0x3d1d9fdb	0.03848253
5	0x3b658feb	0.0035028409
6	0x3dbbb08d	0.09164534
7	0x3e2751a7	0.16339742
8	0x3cd8bdb2	0.026457641
9	0x3d640060	0.05566442
10	0x3f9350d9	1.1509048
11	0x3ea6372f	0.32463977
12	0x3fefad40	1.8724747
13	0x415a609c	13.648586
14	0x3fb24e0d	1.3930069
15	0x41b13bf6	22.154278
16	0x3db1def2	0.086851016
17	0x3e2e7552	0.17036942
18	0x3d8d32e4	0.06894472
19	0x3f103f94	0.5634701
20	0x3f2f7f1d	0.68553334
21	0x3e4511be	0.1924505
22	0x3e4ef711	0.20211436
23	0x409b3681	4.8504033
24	0x3ffb0f8d	1.9614121
25	0x40ef9434	7.486841
26	0x42019145	32.391865
27	0x00000004	6e-45
28	0x41fc901b	31.570364
29	0x00000004	6e-45
30	0x00000004	6e-45
31	0x00000004	6e-45
32	0x3ea7e0b9	0.32788637

fc1.weight f4 [96, 33]
0	0xbe588d22	-0.21147588
1	0x3ee35926	0.44403952
2	0x3ec3a4f7	0.38211796
3	0xbe1cef8a	-0.15325752
4	0xbe6c2208	-0.23059857
5	0x3f180d2d	0.59395105
6	0x3e8a2c0e	0.26986736
7	0xbe075e73	-0.13219623
8	0xbe646cf1	-0.22307183
9	0xbe885f65	-0.2663528
10	0xba027cf1	-0.0004977724
11	0xbcdde319	-0.027085828
12	0x3b9e9c6f	0.0048404257
13	0x3f3ddff9	0.7416988
14	0x3e44f7a5	0.19235094
15	0xbf15b99f	-0.5848636
16	0x3d2dc93d	0.042428244
17	0xbc119f7a	-0.00888812
18	0xbdb8b8c6	-0.09019618
19	0x3d8b9785	0.068160094
20	0x3ea1cd56	0.3160197
21	0x3da7a391	0.08185495
22	0xbe9ea7bf	-0.30987355
23	0x3e0e56c4	0.13900286
24	0x3dff0b1c	0.12453291
25	0x3e7ad12f	0.2449386
26	0x3bde790a	0.0067893313
27	0x3d52574a	0.051352777
28	0xbed196ef	-0.40935466
29	0xbcc424e7	-0.023943378
30	0x3cc79307	0.0243621
31	0x3dd0e4a6	0.10199861
32	0x3e3b5779	0.18295087
33	0xbeb53905	-0.35395065
34	0xbe1209eb	-0.14261596
35	0xbd838964	-0.064226896
36	0x3e628d88	0.22124302
37	0x3dbd54b5	0.09244672
38	0xbec645d8	-0.38725162
39	0x3e97706d	0.29577962
40	0x3eb29f69	0.34887245
41	0x3ee802c9	0.45314625
42	0xbf22a629	-0.6353479
43	0xbe9e74b9	-0.30948427
44	0xbce6d90c	-0.028179668
45	0x3e0cd6a0	0.13753748
46	0xbd5f0260	-0.054445624
47	0x3ec04d48	0.3755896
48	0x3edc5cd8	0.43039584
49	0x3e53748d	0.2064993
50	0xbf1ff525	-0.62483436
51	0x3e6c3437	0.23066793
52	0xbe3cfa33	-0.18454818
53	0xbf164c2e	-0.5870999
54	0xbe06bdab	-0.1315829
55	0xbc15bfa4	-0.009139929
56	0xbe5cd5a6	-0.21565875
57	0x3e04ded3	0.12975626
58	0x3d9e3187	0.0772429
59	0x3eb600a4	0.35547364
60	0x3d895cda	0.06707163
61	0xbf81e04b	-1.0146574
62	0xbdb0557a	-0.08610053
63	0x3dcf8dc4	0.101344615
64	0x3c906849	0.017627852
65	0x3d1c3d51	0.038144413
66	0xbe96f795	-0.29485765
67	0x3f063da5	0.5243781
68	0xbf3a818d	-0.7285393
69	0xbebc329f	-0.3675737
70	0xbcb7ae3b	-0.022421947
71	0xbf0b3f20	-0.54393196
72	0xbec3c6f1	-0.38237718
73	0x3c0d205b	0.008613671
74	0xbebdac91	-0.3704572
75	0xbd8e6e1f	-0.06954598
76	0xbe834a6c	-0.25642717
77	0x39f9bde7	0.0004763447
78	0xbeb91d0d	-0.36154976
79	0x3cc380ea	0.023865182
80	0xbec2a0aa	-0.38013202
81	0x3d727117	0.059189882
82	0xbdfbffd2	-0.12304653
83	0x3d09281a	0.03348551
84	0xbe1ca2ee	-0.15296528
85	0xbdf08b57	-0.11745327
86	0xbe0d8f4b	-0.13824193
87	0xbe267458	-0.16255319
88	0x3cbb95a2	0.022898499
89	0xbdb36829	-0.08760101
90	0xbcc58251	-0.024109991
91	0xbe599151	-0.2124684
92	0xbed79d18	-0.4211204
93	0x3a5d5cf7	0.0008444334
94	0x3f3ffd30	0.7499571
95	0x3c0e7541	0.008694948
96	0x3d3e7f42	0.04650808
97	0xbce1699f	-0.027516184
98	0x3e95c3e6	0.2925102
99	0xbe8ac656	-0.27104443
100	0xbf31067d	-0.69150525
101	0xbd978022	-0.07397486
102	0x3e45e0b7	0.19324003
103	0x3e1d1ae7	0.15342294
104	0xbe238560	-0.15968847
105	0x3e94f065	0.29089656
106	0xbc68a13b	-0.014198597
107	0x3d55e6e5	0.05222215
108	0xbd28b44d	-0.041187573
109	0xbe73d979	-0.23813428
110	0xbe18f8ec	-0.14938706
111	0x3de8d909	0.11369521
112	0x3e957022	0.29187113
113	0x3f045f96	0.5170835
114	0x3f1b1b71	0.6058875
115	0xbc98541c	-0.018594794
116	0xbddca6ed	-0.10774026
117	0xbd00f27e	-0.03148126
118	0xbe375947	-0.1790515
119	0x3c88079b	0.01660519
120	0xbdb6fc5c	-0.089348525
121	0xbe621ca6	-0.22081241
122	0x3e4f2ec9	0.20232691
123	0x3e9eae22	0.30992228
124	0x3c5a806d	0.013336283
125	0xbeaa6b5f	-0.33285043
126	0xbd9acea0	-0.07558942
127	0xbf19a460	-0.6001644
128	0x3ba2b3d9	0.004965287
129	0x3dcc2fa0	0.09970021
130	0xbcf7e7c5	-0.030261884
131	0xbc8957ab	-0.016765436
132	0xbddba940	-0.10725641
133	0xbdcae53b	-0.099070035
134	0xbe5d7524	-0.21626717
135	0xbd724890	-0.059151232
136	0x3e5267a8	0.20547354
137	0xbe212884	-0.15738112
138	0xbe185d7e	-0.14879414
139	0x3e3e26de	0.18569514
140	0xbc713eb3	-0.014724421
141	0x3cd06d4b	0.02544274
142	0xbd8717d9	-0.065963455
143	0xbf12336a	-0.571097
144	0xbcdf2093	-0.027237212
145	0x3e3d73b5	0.1850117
146	0x3d969ea1	0.07354475
147	0x3e8417a7	0.25799295
148	0xbef23876	-0.473087
149	0x3d2dcf09	0.042433772
150	0xbd8de3e8	-0.06928235
151	0x3df62679	0.12019057
152	0xbd50a069	-0.05093423
153	0x3f1b3c6f	0.6063909
154	0xbd1decb2	-0.03855581
155	0xbe80e8bb	-0.2517756
156	0x3e2dc278	0.16968715
157	0x3ef2ad43	0.47397813
158	0x3e880254	0.26564276
159	0xbc1040b9	-0.008804494
160	0x3e90ece7	0.28305742
161	0x3d0374c7	0.03209379
162	0xbccbbf5b	-0.024871519
163	0x3d1fe496	0.039036356
164	0x3f6876f4	0.9080651
165	0x3d4a563f	0.049398657
166	0x3db74b75	0.08949939
167	0x3ef5409f	0.47900864
168	0xbde0b6c3	-0.10972359
169	0xbe3f255d	-0.18666597
170	0x3f0039ff	0.50088495
171	0xbea06ad7	-0.31331512
172	0x3c2b2008	0.010444649
173	0xbe7b6b53	-0.2455266
174	0xbebce12d	-0.36890545
175	0xbe8ecc6b	-0.27890334
176	0x3dc68d4a	0.096949175
177	0x3d4157a1	0.04720271
178	0xbe9a6211	-0.30152944
179	0x3e33d19d	0.1756043
180	0xbecf9510	-0.40543413
181	0x3e97abfc	0.296234
182	0x3f112f48	0.5671277
183	0xbe5dee45	-0.21672924
184	0x3f2b9ed0	0.67039204
185	0xbecfb5f6	-0.40568513
186	0x3e94c50f	0.29056594
187	0x3d955413	0.072914265
188	0xbf0fe09c	-0.562021
189	0xbd509af3	-0.05092902
190	0x3d4a2cc3	0.049359094
191	0x3d85f38c	0.065405935
192	0xbdbd1b3f	-0.092337124
193	0xbe2d3f5a	-0.16918698
194	0xbd367f5c	-0.044555053
195	0xbd74c38d	-0.059756804
196	0xbd98804a	-0.07446344
197	0xbf07b94d	-0.5301712
198	0xbcb2c01d	-0.021820122
199	0xbe093df5	-0.13402541
200	0xbf0e3a1c	-0.5555742
201	0x3e0a6810	0.13516259
202	0xbe338006	-0.17529306
203	0x3ef34563	0.47513875
204	0xbef3cac8	-0.47615647
205	0xbe64d9dd	-0.22348733
206	0xbe574707	-0.21023189
207	0x3ddfc6b6	0.10926573
208	0x3e694c69	0.22783054
209	0xbeb585b3	-0.35453567
210	0x3db41ae7	0.08794194
211	0xbe7362e9	-0.237682
212	0xbd1548eb	-0.036446493
213	0x3efe0f78	0.49621177
214	0xbda18496	-0.07886617
215	0x3d84603a	0.06463666
216	0xbe86a3f5	-0.26296964
217	0x3e4fe97e	0.20303914
218	0x3cb12d15	0.021627942
219	0xbf583a10	-0.84463596
220	0xbeb69a82	-0.35664755
221	0xbeffb605	-0.49943557
222	0xbeaba2c1	-0.3352261
223	0xbe294c64	-0.16533047
224	0xbdc5ad01	-0.096521385
225	0x3c85ec09	0.016347902
226	0x3ee77360	0.45205212
227	0xbd8dad1d	-0.06917784
228	0x3dcbc604	0.09949878
229	0xbdc6fad0	-0.097158074
230	0xbe966e25	-0.2938091
231	0x3da5bc83	0.080925964
232	0xbe3cdcd3	-0.18443613
233	0xbe95eea0	-0.2928362
234	0xbe509873	-0.20370655
235	0xbe8dac7f	-0.27670667
236	0xbde41527	-0.11136847
237	0xbeb6e870	-0.3572421
238	0xbd8fcd37	-0.070215635
239	0xbeec5722	-0.46160227
240	0xbeab5dd6	-0.3347003
241	0xbf351fda	-0.70751727
242	0xbe9fd9e4	-0.31220925
243	0xbea08cb7	-0.31357357
244	0xbf1467c1	-0.57970816
245	0xbcc52534	-0.024065591
246	0xbd561c49	-0.05227307
247	0x3dc35c7f	0.095391266
248	0xbef3d8ab	-0.47626242
249	0x3e677f0e	0.22607061
250	0x3ef22659	0.47294882
251	0x3e4bb3cb	0.19892804
252	0x3dfeab7e	0.12435053
253	0x3e876033	0.26440582
254	0xbee667a4	-0.45000947
255	0xbec6c75e	-0.3882398

fc1.bias f4 [96]
0	0xbd886895	-0.066605724
1	0xbc7aac80	-0.015299916
2	0x3d15d318	0.036578268
3	0x3dce593f	0.10075616
4	0xbe110e26	-0.14165553
5	0x3d06e10e	0.032929473
6	0x3e27fbc9	0.16404642
7	0xbb49d130	-0.0030794851
8	0xbdd5ffb3	-0.104491614
9	0xbd1863a9	-0.03720442
10	0x3dcc7ea6	0.09985094
11	0x3e10178f	0.14071487
12	0x3d3d82ce	0.046267323
13	0x3ba3519a	0.004984093
14	0xbd844583	-0.06458571
15	0xbd7f7f27	-0.06237712
16	0xbd9e8596	-0.07740323
17	0xbe1658b5	-0.14682277
18	0xbd80e8bd	-0.06294391
19	0x3d24ff0f	0.040282305
20	0x3ccd1b40	0.025037408
21	0x3ba2d7d0	0.0049695745
22	0xbdf3464a	-0.11878641
23	0x3dff18a6	0.12455873
24	0xbe013eef	-0.12621664
25	0x3df846e2	0.12122895
26	0x3c0e2bac	0.008677404
27	0x3dea72c3	0.1144767
28	0xbdfffe6e	-0.124997005
29	0xbe2e62be	-0.17029855
30	0x3cdc9d2e	0.026930418
31	0xbcd289f9	-0.025700556
32	0x3ce4abf7	0.02791403
33	0xbe1ebf46	-0.15502653
34	0xbccc2ead	-0.0249246
35	0x3e15e42a	0.14637819
36	0xbe03e5d6	-0.12880644
37	0x3d31b83a	0.043388583
38	0x3c2aa4fa	0.01041531
39	0x3d18e879	0.03733108
40	0x3d8c94d8	0.06864327
41	0xbd8a3f1f	-0.06750321
42	0xbd12aed9	-0.03581128
43	0xbe11cb54	-0.1423772
44	0xbe269b30	-0.16270137
45	0x3d3f3925	0.046685357
46	0x3e05e28e	0.13074705
47	0xbd3f59a0	-0.046716332
48	0xbe1a0e89	-0.15044607
49	0xbe203f15	-0.15649064
50	0xbd9e233e	-0.07721566
51	0x3e2eccd4	0.17070323
52	0x3ca5be08	0.020232216
53	0xbbf84c20	-0.007577434
54	0xbdc81d32	-0.097711936
55	0xbe0e93c8	-0.13923562
56	0xbe090fb1	-0.13384892
57	0xbde8516c	-0.11343655
58	0x3ba9f2aa	0.0051863985
59	0x3cfaa3bf	0.030595658
60	0x3e1f1888	0.15536702
61	0xbe09f9d4	-0.13474208
62	0xbdad730c	-0.08469209
63	0xbde8f14d	-0.113741495
64	0xbd70b64b	-0.058767598
65	0xbde7e86c	-0.11323628
66	0x3d9cf14d	0.07663212
67	0x3dfda137	0.12384265
68	0x3df0d4e9	0.117593594
69	0x3e155691	0.14583804
70	0xbcdc07f5	-0.026859263
71	0x3d1918af	0.037377056
72	0xbdfa141c	-0.12210867
73	0x3e2cd669	0.16878666
74	0x3e1d31e9	0.1535107
75	0xbdcd2e3a	-0.10018583
76	0x3e238664	0.15969235
77	0x3c26dc6d	0.01018439
78	0x3e07a77c	0.13247484
79	0x3e13e48c	0.14442652
80	0xbd15e258	-0.03659281
81	0xbd884d88	-0.06655413
82	0xbc952046	-0.018203866
83	0x3de179ab	0.110095344
84	0xbda35ba9	-0.07976467
85	0xbc82b871	-0.01595709
86	0xbdeddf4e	-0.116148576
87	0xbe14949e	-0.14509818
88	0x3d6d1a2b	0.057886284
89	0xbe291a2f	-0.16513894
90	0xbe0975fb	-0.13423912
91	0xbd73d822	-0.059532292
92	0xbe00e6df	-0.1258807
93	0xbd84aae7	-0.064779095
94	0xbe166f0d	-0.146908
95	0x3d13e81a	0.03611002

bn1.weight f4 [96]
0	0x3f3f064b	0.7461898
1	0x3f4169b8	0.7555194
2	0x3f4d6348	0.80229616
3	0x3efcfe6a	0.49412853
4	0x3f6f8de6	0.93575895
5	0x3f2d80bb	0.6777455
6	0x3f7706a6	0.9649452
7	0x3ef2f543	0.47452745
8	0x3f4187d5	0.7559789
9	0x3f25579f	0.64586824
10	0x3f219ff6	0.63134706
11	0x3f2aada8	0.6667123
12	0x3ec1d2c8	0.37856126
13	0x3f0f6d81	0.56026465
14	0x3f5d6f4f	0.8649797
15	0x3f5ba63d	0.85800534
16	0x3f706171	0.93898684
17	0x3f3847c8	0.7198453
18	0x3f29162b	0.6604945
19	0x3ef12edb	0.4710606
20	0x3ec07e5e	0.3759641
21	0x3f1f7d31	0.623004
22	0x3f2c516a	0.6731173
23	0x3f5e60f6	0.868667
24	0x3f0e3c56	0.55560815
25	0x3f1128ae	0.567027
26	0x3f3663df	0.7124614
27	0x3f22959f	0.63509554
28	0x3f3b4a14	0.7315991
29	0x3f30ae15	0.6901563
30	0x3f39d6e2	0.7259351
31	0x3f053c79	0.520454
32	0x3f156620	0.58358955
33	0x3f3407c4	0.7032435
34	0x3f49ac53	0.7877857
35	0x3f2769fe	0.65396106
36	0x3f1ca663	0.61191386
37	0x3f822085	1.0166174
38	0x3f359eea	0.7094561
39	0x3efd7ed6	0.4951083
40	0x3f1e7253	0.61893195
41	0x3f724a11	0.94644266
42	0x3f028929	0.5099054
43	0x3f1899f0	0.5960989
44	0x3f1aac8d	0.6041954
45	0x3f2e187c	0.6800611
46	0x3ebc8df8	0.36827064
47	0x3f658131	0.89650255
48	0x3f2a1074	0.66431355
49	0x3f31bc35	0.69427806
50	0x3f15f71b	0.5858018
51	0x3f393bc8	0.72356844
52	0x3f32c7c1	0.6983605
53	0x3f3a1a4f	0.72696394
54	0x3f8a4124	1.0801129
55	0x3f178fb1	0.5920363
56	0x3f16e862	0.5894834
57	0x3e8eaeac	0.2786764
58	0x3efc4d48	0.4927771
59	0x3f4652ac	0.774699
60	0x3f46bd1f	0.77632326
61	0x3f4ee6f9	0.80821186
62	0x3f3d653a	0.73982584
63	0x3ecbdd0f	0.39817092
64	0x3eccb147	0.39979002
65	0x3f4e5af3	0.8060753
66	0x3f33faab	0.70304364
67	0x3f455df5	0.7709649
68	0x3f01bf8f	0.5068292
69	0x3f173cf4	0.5907738
70	0x3eeb1e74	0.4592167
71	0x3f2d9b04	0.6781466
72	0x3f7e1ed8	0.99265814
73	0x3f0e923d	0.5569189
74	0x3f48b7a4	0.78405213
75	0x3f3e2c90	0.74286747
76	0x3f167446	0.5877117
77	0x3f4f90da	0.810804
78	0x3f2493cc	0.6428802
79	0x3f019612	0.50619614
80	0x3eb29764	0.34881127
81	0x3f78220c	0.9692695
82	0x3f453ab1	0.7704268
83	0x3f33fe40	0.7030983
84	0x3f4a87ea	0.7911364
85	0x3efadbb3	0.48995742
86	0x3f3dffda	0.74218524
87	0x3f17d549	0.5930982
88	0x3f074e8d	0.52854234
89	0x3f4cadc9	0.79952675
90	0x3f21bae3	0.6317579
91	0x3f6f5e92	0.9350368
92	0x3f5b2e1a	0.8561722
93	0x3f200ac3	0.6251642
94	0x3f013153	0.5046589
95	0x3eff3940	0.49848366

bn1.bias f4 [96]
0	0xbf4ad155	-0.79225665
1	0xbf02dd5a	-0.51119006
2	0xbe7f6c20	-0.2494359
3	0x3e4113d7	0.18855225
4	0xbe6aa593	-0.22914724
5	0xbed5198d	-0.41621056
6	0xbf38f7ac	-0.7225292
7	0x3e40a2ea	0.18812147
8	0xbf0cffb4	-0.5507767
9	0x3e47d1cc	0.19513625
10	0x3d035f7b	0.03207348
11	0xbe123e74	-0.14281636
12	0x3e652834	0.22378618
13	0x3e2a616c	0.16638726
14	0xbead6e8d	-0.33873406
15	0xbeff0d1b	-0.49814686
16	0xbf0cd092	-0.55005753
17	0xbed17f3b	-0.40917382
18	0xbe6d87ca	-0.2319633
19	0xbc5fcf4f	-0.013660266
20	0x3e55395b	0.2082266
21	0xbe911489	-0.2833598
22	0xbf21fdc3	-0.63277835
23	0xbef6f83c	-0.48236263
24	0xbe5e909d	-0.21734853
25	0xbda054b5	-0.078286566
26	0xbe85f489	-0.26163128
27	0xbdfedd13	-0.1244451
28	0xbf0fbeff	-0.5615081
29	0xbf027201	-0.50955206
30	0xbe4e578d	-0.20150585
31	0xbf110bb7	-0.566585
32	0x3df54c86	0.11977486
33	0xbeeef107	-0.46668264
34	0xbf026a35	-0.5094331
35	0xbedcf223	-0.43153486
36	0xbe72a377	-0.2369517
37	0xbf1035d9	-0.56332165
38	0xbf142012	-0.57861435
39	0xbea639b1	-0.3246589
40	0xbeda4be2	-0.4263602
41	0xbe318e1b	-0.17339365
42	0xbeac1a2b	-0.33613715
43	0xbe834632	-0.25639492
44	0x3ce52d60	0.027975738
45	0xbe3355e3	-0.17513232
46	0x3d93905f	0.07205271
47	0xbe5542d3	-0.20826273
48	0x3ee90cad	0.45517483
49	0xbe908cd1	-0.28232434
50	0xbf2785b7	-0.6543841
51	0xbed95e93	-0.42454967
52	0xbf66f7c6	-0.9022182
53	0xbef21437	-0.47281048
54	0xbf066a7d	-0.5250624
55	0xbeb394a0	-0.3507433
56	0xbf1916a9	-0.598002
57	0x3e47b705	0.1950341
58	0xbeef5c0c	-0.46749914
59	0xbf37ed6b	-0.71846646
60	0xbebea931	-0.37238458
61	0xbe8f52e5	-0.2799293
62	0xbf0c1600	-0.5472107
63	0xbe1390da	-0.14410725
64	0x3f029d36	0.51021135
65	0xbf0a4aed	-0.5402058
66	0xbedf1678	-0.4357183
67	0xbeadfa98	-0.3398025
68	0xbf0a4e46	-0.54025686
69	0x3ea3702b	0.31921515
70	0x3d676d2c	0.0565006
71	0xbefd5fad	-0.49487057
72	0xbeac4bd2	-0.33651596
73	0xbe90d84b	-0.28290018
74	0xbe768206	-0.24073038
75	0xbf1873cb	-0.59551686
76	0x3d377768	0.04479161
77	0xbec34697	-0.38139793
78	0xbf06f8f7	-0.5272364
79	0xbe98f3e1	-0.29873565
80	0x3e69296e	0.2276971
81	0xbf37cc67	-0.7179627
82	0xbf15408d	-0.5830162
83	0xbe3a074d	-0.18166848
84	0xbe7547b6	-0.23953137
85	0xbea748c6	-0.3267271
86	0xbeb5cb1c	-0.35506523
87	0xbe4e25bf	-0.20131586
88	0xbe7908f3	-0.2431982
89	0xbf0c880b	-0.54895085
90	0xbebe1e04	-0.37132275
91	0xbe2c5a62	-0.16831353
92	0xbef7f008	-0.48425317
93	0x3ec69390	0.38784456
94	0xbf39fdda	-0.7265297
95	0xbe133750	-0.14376569

bn1.running_mean f4 [96]
0	0xbd75edbe	-0.06004118
1	0xbca9b762	-0.020717327
2	0x3ceea8f8	0.029133305
3	0x3de849a7	0.11342173
4	0xbe0e85fb	-0.13918297
5	0x3cf5bda0	0.029997647
6	0x3e22e783	0.15908627
7	0xbcbdd235	-0.023171524
8	0xbde41674	-0.11137095
9	0xbd0f4acb	-0.034983438
10	0x3dd850f2	0.10562314
11	0x3e2d41c8	0.16919625
12	0x3d47fe23	0.048826348
13	0x3b956bb3	0.004559958
14	0xbd802fa1	-0.062590845
15	0xbd493d4a	-0.049130715
16	0xbda56150	-0.080752015
17	0xbe0725ce	-0.13198015
18	0xbd7e83d8	-0.062137455
19	0x3cff4578	0.031161055
20	0x3cafc872	0.021457884
21	0x3c6d58f5	0.014486541
22	0xbe0f3b55	-0.13987477
23	0x3de983c1	0.11402083
24	0xbe0fbe13	-0.14037351
25	0x3e07c861	0.13260032
26	0x3bd69c71	0.006549411
27	0x3e0e570d	0.13900395
28	0xbdef2fb4	-0.116790205
29	0xbe396bf2	-0.18107584
30	0x3d1dc1b2	0.0385148
31	0xbcf3b5a5	-0.0297497
32	0x3d1caec7	0.03825262
33	0xbe20587d	-0.15658756
34	0xbd4d03fd	-0.05005263
35	0x3e092254	0.13392001
36	0xbe0de292	-0.13855961
37	0x3d3ef29e	0.046618097
38	0x3cf5cbd7	0.030004425
39	0x3cf7717c	0.03020548
40	0x3da39bfc	0.07988736
41	0xbd5a16c2	-0.05324436
42	0xbd155a50	-0.03646308
43	0xbe047967	-0.12936936
44	0xbe35abf2	-0.17741373
45	0x3d4d2212	0.05008132
46	0x3e179134	0.14801484
47	0xbd44f81b	-0.048088174
48	0xbe050781	-0.12991144
49	0xbe243248	-0.16034806
50	0xbdc05f31	-0.09393156
51	0x3e277e29	0.1635672
52	0x3c2332c6	0.009960836
53	0xbc32b129	-0.010906496
54	0xbdca1206	-0.09866719
55	0xbe0b855d	-0.13625093
56	0xbe08e661	-0.13369133
57	0xbddc9d6b	-0.107722126
58	0x3c466c79	0.012110823
59	0x3d3b26b6	0.045691215
60	0x3e2360b5	0.1595486
61	0xbe21cfa6	-0.15801868
62	0xbddd7591	-0.1081344
63	0xbe0ebb52	-0.13938645
64	0xbd711e66	-0.05886688
65	0xbde94066	-0.11389236
66	0x3d832814	0.06404129
67	0x3df2cb9c	0.11855242
68	0x3de715be	0.11283444
69	0x3e169dd7	0.14708649
70	0xbb5b6f03	-0.0033482916
71	0x3d09f5bc	0.033681616
72	0xbddc7fba	-0.107665494
73	0x3e39488f	0.18094085
74	0x3e2138bb	0.15744297
75	0xbdbe2c1d	-0.09285758
76	0x3e411d1b	0.18858759
77	0x3b245c4b	0.0025079425
78	0x3de07543	0.10959866
79	0x3e0ebd52	0.13939407
80	0xbce0020b	-0.027344724
81	0xbd986a89	-0.07442195
82	0xbcd426aa	-0.025897343
83	0x3dde12b3	0.1084341
84	0xbd46c76f	-0.04853004
85	0xbc3e33d9	-0.011609041
86	0xbe00f03d	-0.12591644
87	0xbe07bb81	-0.13255121
88	0x3da3e61d	0.08002875
89	0xbe1bf5b6	-0.1523045
90	0xbdfa0062	-0.12207104
91	0xbd8cd3f7	-0.068763666
92	0xbde59a9f	-0.11211132
93	0xbd924608	-0.07142264
94	0xbe029b85	-0.12754638
95	0x3cf1fe99	0.029540347

bn1.running_var f4 [96]
0	0x3feea2b6	1.8643405
1	0x3f1efc07	0.62103313
2	0x3f57dfd9	0.8432594
3	0x3dfd0f5f	0.123564474
4	0x3fd40cad	1.6566368
5	0x3f380f82	0.71898663
6	0x3f7fe31a	0.99955904
7	0x3f1b24e0	0.6060314
8	0x3f5574d3	0.83381385
9	0x3f71677e	0.9429854
10	0x3e41d6e3	0.18929629
11	0x3ec7d002	0.39025885
12	0x3ea157cc	0.31512296
13	0x3d54ec59	0.05198321
14	0x3f4df2db	0.80448693
15	0x3fcc5649	1.5963832
16	0x3f8c3a66	1.0955322
17	0x3fa0eb8d	1.2571884
18	0x3e976bfa	0.29574567
19	0x3e8eeefb	0.27916703
20	0x3dcf0285	0.101079024
21	0x3f5a4a2b	0.8526942
22	0x3f079308	0.52958727
23	0x3f3b0070	0.7304754
24	0x40363389	2.8468955
25	0x3f794f00	0.9738617
26	0x3fa2a310	1.2706013
27	0x3f9d97ab	1.231191
28	0x3ee8188e	0.45331234
29	0x4050e550	3.2639961
30	0x3f75a4b2	0.9595443
31	0x3f107247	0.56424373
32	0x3fc898a0	1.5671577
33	0x3e350ca8	0.17680609
34	0x3f37584a	0.71619093
35	0x3fc6f21b	1.5542635
36	0x3d8dfe22	0.069332376
37	0x3e255446	0.16145429
38	0x3f1d6fd6	0.61498773
39	0x3fa0b28b	1.2554487
40	0x3f438915	0.76381046
41	0x3f6a0450	0.9141283
42	0x3f899770	1.074934
43	0x3f3b7a0c	0.73233104
44	0x3feb2da3	1.8373302
45	0x3e5c02d4	0.21485454
46	0x3f5c689c	0.8609712
47	0x3f68974b	0.90855855
48	0x3eb75504	0.3580705
49	0x3fe39c60	1.7782097
50	0x3fd7a537	1.6847295
51	0x3fba7849	1.4567958
52	0x3e6259f8	0.22104633
53	0x4002cbf9	2.0436995
54	0x3fe9bdc0	1.8261032
55	0x3d8fd1e0	0.07022452
56	0x3f83a016	1.0283229
57	0x3fa47560	1.284832
58	0x3eced586	0.4039728
59	0x400928ba	2.1431108
60	0x3f87c5d8	1.0607252
61	0x3f565ae8	0.8373246
62	0x3faca695	1.3488337
63	0x3fa870ff	1.3159484
64	0x3f1af428	0.605288
65	0x3fd2e77c	1.6476893
66	0x4016dfe9	2.3574164
67	0x3fc0fdad	1.5077416
68	0x3fa69f6f	1.3017405
69	0x3de8157f	0.11332225
70	0x3f4c1a55	0.7972768
71	0x3fa4255c	1.2823901
72	0x3f9bd42d	1.2174126
73	0x3feb498d	1.8381821
74	0x3f46bb62	0.77629673
75	0x3ed8eecc	0.42369688
76	0x3ec599db	0.38593945
77	0x4007e6dc	2.1234655
78	0x3ef8f5ab	0.4862493
79	0x3f6f43b2	0.9346267
80	0x3eb9ed51	0.3631387
81	0x3f9d913f	1.230995
82	0x3f1033d2	0.5632907
83	0x3e29645f	0.16542195
84	0x3fc26131	1.518591
85	0x3f1ec376	0.62017
86	0x3fa136a1	1.2594796
87	0x3f5fff9f	0.8749942
88	0x3f59afda	0.85033953
89	0x3fb92652	1.446482
90	0x3f3345d8	0.7002845
91	0x3fa950e9	1.3227817
92	0x3eff520a	0.49867278
93	0x3f04af10	0.51829624
94	0x3f497325	0.7869132
95	0x3f8295b1	1.0201932

fc2.weight f4 [96, 96]
0	0x3ca3491e	0.019932326
1	0xbf512cb0	-0.8170881
2	0x3eafc1bf	0.34327504
3	0x3f2639f3	0.64932173
4	0xbf1b4536	-0.6065248
5	0xbee77395	-0.4520537
6	0xbdef5398	-0.11685866
7	0x3efc03b6	0.4922158
8	0xbf2e3b77	-0.68059486
9	0xbe8235f0	-0.25431776
10	0xbcca9362	-0.02472848
11	0x3e432dc5	0.19060428
12	0xbe25e6ad	-0.16201277
13	0xbd295391	-0.04133946
14	0x3f0f6822	0.5601827
15	0xbdc31741	-0.0952592
16	0x3e53f0e0	0.20697355
17	0xbe255790	-0.16146684
18	0xbe475f13	-0.19469862
19	0x3f001458	0.5003104
20	0xbe164cd7	-0.1467775
21	0x3f6a85f4	0.91610646
22	0x3dcd6022	0.100281015
23	0x3c425153	0.0118602095
24	0xbf1cf9e1	-0.61318785
25	0x3e12e7bc	0.14346212
26	0xbe997ed2	-0.2997957
27	0x3cb06727	0.021533562
28	0x3eabd425	0.3356029
29	0x3e435a71	0.1907747
30	0xbe96d1ae	-0.29456848
31	0x3e466685	0.19375046
32	0x3df41186	0.11917405
33	0x3e063af6	0.1310843
34	0xbea99e11	-0.33128408
35	0x3dee3eea	0.11633094
36	0x3e838142	0.25684553
37	0x3e18146a	0.14851537
38	0x3e11b84e	0.14230463
39	0xbf39f03a	-0.7263218
40	0xbe6773f5	-0.22602828
41	0xbe6ca5d1	-0.23110129
42	0xbd975d01	-0.07390786
43	0xbe6aeffa	-0.22943106
44	0xbe118d82	-0.14214137
45	0x3e308139	0.17236795
46	0xbd610ff8	-0.05494687
47	0x3e5cc598	0.21559751
48	0xbf0090e7	-0.50221103
49	0xbdbe9743	-0.09306195
50	0xbf56c1fc	-0.83889747
51	0x3d7ff3d5	0.062488396
52	0xbf236e7a	-0.6384045
53	0x3f85f366	1.0464904
54	0x3ea9ac45	0.33139244
55	0xbe85a17e	-0.2609977
56	0xbe800a8e	-0.25008053
57	0x3d74d524	0.05977358
58	0xbe724813	-0.23660307
59	0xbf281db0	-0.656703
60	0x3e9c6f83	0.30553827
61	0x3dc1d19a	0.094638065
62	0xbe4e8b50	-0.20170331
63	0x3eb5035f	0.35354134
64	0xbe797274	-0.24360067
65	0xbf30bea8	-0.6904092
66	0x3e18292e	0.14859459
67	0xbf00553c	-0.5013006
68	0x3ed34ad5	0.4126803
69	0xbed18f76	-0.40929765
70	0x3e1ff564	0.15620953
71	0x3f598e89	0.84983116
72	0xbdb9e48f	-0.09076797
73	0xbd74f39f	-0.059802648
74	0xbea28384	-0.31740963
75	0xbe14be01	-0.14525606
76	0xbec1ec5b	-0.37875637
77	0x3d4a4641	0.049383406
78	0x3e7be529	0.24599136
79	0xbf602a03	-0.87564105
80	0x3e2a8371	0.16651703
81	0xbe802ba3	-0.25033292
82	0x3e8a369d	0.26994792
83	0x3df6533d	0.12027595
84	0x3e7b86d8	0.24563158
85	0xbf5c5fe2	-0.86083806
86	0xbea86ce9	-0.32895592
87	0x3ed7362c	0.42033517
88	0xbdb0b46d	-0.086281635
89	0x3ee8c5ee	0.45463508
90	0xbf0c7732	-0.5486938
91	0x3eefd35e	0.46840948
92	0x3ea33ba7	0.3188145
93	0x3e9839a2	0.2973147
94	0xbcefed97	-0.029288096
95	0x3d1b9f51	0.037993733
96	0x3f189183	0.59597033
97	0xbf12f438	-0.574039
98	0xbdf9cab2	-0.12196864
99	0x3e067352	0.13129929
100	0xbe2128eb	-0.15738265
101	0xbe2ad438	-0.16682518
102	0xbee725e9	-0.4514611
103	0xbedec5ef	-0.43510386
104	0xbe9c81e2	-0.30567843
105	0xbeab7bc1	-0.33492854
106	0xbf2893ba	-0.6585041
107	0xbe9c6921	-0.30548957
108	0xbf2a7441	-0.6658364
109	0x3f00dd66	0.5033783
110	0x3f1997b2	0.59997094
111	0xbe493b3b	-0.19651501
112	0xbcf1ac0a	-0.02950098
113	0xbe309146	-0.17242917
114	0xbe1805c7	-0.14845954
115	0xbe7053a6	-0.2346941
116	0x3f17035b	0.58989495
117	0xbe85a768	-0.26104283
118	0x3d76ad18	0.06022367
119	0xbeadd049	-0.3394797
120	0xbdca833d	-0.09888313
121	0xbe8c8802	-0.27447516
122	0x3ed87461	0.4227629
123	0xbef9a2fa	-0.48757154
124	0xbee380ba	-0.44434148
125	0x3d859896	0.06523244
126	0xbe4ec24b	-0.20191304
127	0x3d0e5664	0.034750357
128	0xbe952908	-0.29132867
129	0x3ecdb67c	0.40178287
130	0xbeacbe82	-0.33739096
131	0xbf14edf9	-0.5817562
132	0x3e0becca	0.13664547
133	0x3e97bf65	0.2963821
134	0x3ed740ea	0.42041713
135	0x3e261909	0.16220488
136	0xbd12566e	-0.035726957
137	0x3e9a5306	0.30141467
138	0xbd78620f	-0.06064039
139	0x3e27eef6	0.1639975
140	0xbee28729	-0.44243744
141	0x3d97f76d	0.074202396
142	0xbe174aba	-0.147746
143	0xbea69c33	-0.32541046
144	0x3db980e1	0.09057785
145	0xbdb4512d	-0.088045456
146	0xbef2f756	-0.47454327
147	0x3e558aed	0.20853777
148	0x3ef57286	0.47938937
149	0xbefdb5e9	-0.4955285
150	0x3e2be634	0.16787034
151	0xbe4555b8	-0.1927098
152	0x3e906dab	0.2820867
153	0x3e09965f	0.13436268
154	0x3df3fd16	0.11913507
155	0xbdd19a66	-0.10234527
156	0xbea4aeb8	-0.3216455
157	0xbea6ca8a	-0.325764
158	0xbed515ae	-0.41618103
159	0xbe012ef6	-0.1261557
160	0x3ea1a545	0.31571403
161	0x3dc0d5bd	0.09415767
162	0x3e829bdc	0.25509536
163	0xbead1f7c	-0.33813083
164	0x3f6061d0	0.8764925
165	0x3e6dccb3	0.23222618
166	0x3d39bc7e	0.045345776
167	0x3e02a23c	0.127572
168	0x3c7c4759	0.01539787
169	0xbe7c45e2	-0.24636033
170	0xbea7b498	-0.3275497
171	0xbce9bcd4	-0.028532423
172	0x3e9cc92c	0.30622232
173	0xbebd30e1	-0.36951354
174	0xbe6f6599	-0.233786
175	0x3daf4240	0.08557558
176	0x3d9e60f0	0.07733333
177	0x3e2ac973	0.1667841
178	0x3e9f8ebc	0.31163585
179	0x3e8755d2	0.26432663
180	0xbf12b58a	-0.57308257
181	0xbe35d97e	-0.17758748
182	0xbee74594	-0.4517027
183	0xbdc34d3d	-0.095362164
184	0xbf0c000a	-0.5468756
185	0xbe00b27e	-0.1256809
186	0xbd82b181	-0.063815124
187	0xbdccfbdd	-0.100089766
188	0xbeb86e15	-0.36021486
189	0x3cbc2d5e	0.022970852
190	0x3cd70fbf	0.026252626
191	0x3ef96267	0.48707888
192	0x3e8a449c	0.2700547
193	0xbef8ad7b	-0.48569855
194	0x3e8a7407	0.27041647
195	0x3eb37e2f	0.35057208
196	0xbf5cb0db	-0.8620736
197	0xbc6a897e	-0.014315007
198	0xbf0ebef1	-0.55760103
199	0x3f3551a1	0.7082768
200	0x3eaf5180	0.34241867
201	0xbd2378d8	-0.039910167
202	0xbe780de0	-0.24224043
203	0x3e553144	0.20819575
204	0x3eb771a3	0.35828885
205	0x3a044458	0.00050455844
206	0x3ec89349	0.3917487
207	0x3e80ad66	0.25132293
208	0xbde71bea	-0.11284621
209	0x3d32d2e1	0.04365814
210	0x3e923761	0.28557876
211	0x3ee7bc34	0.45260775
212	0xbea0f749	-0.31438664
213	0xbedfd6a9	-0.4371846
214	0x3de64513	0.112436436
215	0x3e767b25	0.24070413
216	0xbea18b80	-0.31551743
217	0xbe930961	-0.28718093
218	0xbf969310	-1.176363
219	0x3f418450	0.7559252
220	0xbe6928d8	-0.22769487
221	0x3e7d8cd4	0.24760753
222	0x3daa299a	0.08308716
223	0xbe7bf44d	-0.24604912
224	0xbb95ae5c	-0.0045679044
225	0xbf597ab5	-0.8495286
226	0xbe4e94e7	-0.20173989
227	0xbe7a766b	-0.24459235
228	0x3eae03d1	0.33987287
229	0x3f1211c7	0.57058376
230	0x3f39d60c	0.72592235
231	0xbe83e1aa	-0.25758106
232	0x3f27627e	0.6538466
233	0x3f6c2e3b	0.9225804
234	0x3ece3d29	0.40281036
235	0xbc3c59a1	-0.011495979
236	0x3eb9933f	0.36245152
237	0xbeed1c7c	-0.46310794
238	0xbdf83b32	-0.121206656
239	0xbeaec244	-0.34132588
240	0xbf333eb7	-0.7001757
241	0xbf851407	-1.0396737
242	0xbf8aa6a5	-1.0832106
243	0xbeead119	-0.45862654
244	0xbee0cc31	-0.43905786
245	0x3edc115c	0.42981994
246	0x3ef41ec5	0.47679725
247	0x3ea96d41	0.33091167
248	0x3f663aa4	0.8993323
249	0x3e3301ef	0.17481206
250	0xbda5a0a2	-0.08087279
251	0xbeacc3c0	-0.33743095
252	0xbd7f53b4	-0.062335685
253	0xbe9aa07b	-0.30200562
254	0xbf06084c	-0.5235641
255	0x3f1ac490	0.6045618

fc2.bias f4 [96]
0	0xbca87107	-0.020561708
1	0x3d45e786	0.0483165
2	0xbd3b03e2	-0.045658
3	0xbd8c17f0	-0.06840503
4	0x3bfa8218	0.007644903
5	0x3d6f7689	0.058462653
6	0x3d856714	0.06513801
7	0x3d009dea	0.0314006
8	0xbd051f4e	-0.032500558
9	0x3d43f2c4	0.04783894
10	0x3cc5dad2	0.024152193
11	0x3acc7e05	0.0015601522
12	0x3c4abe6b	0.012374501
13	0xbd8033bd	-0.06259868
14	0x3d879124	0.0661948
15	0x3c6f72d2	0.014614778
16	0xbd1fe715	-0.039038736
17	0xbdb5d918	-0.08879298
18	0x3d816929	0.06318886
19	0xbd456df9	-0.04820058
20	0x3d7bb500	0.061451912
21	0x3da77ca9	0.08178074
22	0xbcb1271b	-0.021625092
23	0x3d9f53be	0.077796444
24	0xbd99a8c6	-0.07502894
25	0xbd9a9d96	-0.075495884
26	0x3d85abf8	0.06526941
27	0xbb9475fc	-0.0045306664
28	0xbaac52ed	-0.0013147272
29	0x3d2e597d	0.04256581
30	0xbd811d71	-0.06304444
31	0x3c4e21f7	0.01258134
32	0x3d5a7f55	0.05334409
33	0xbdae9f3f	-0.085264675
34	0xbd964f2e	-0.07339321
35	0xbdb13c7a	-0.08654113
36	0xbcd4ebab	-0.025991281
37	0xbd7dea4c	-0.06199102
38	0x3d582314	0.052767828
39	0xbc07dabb	-0.0082918955
40	0xbdb323d8	-0.08747071
41	0xbd8ce2e4	-0.068792135
42	0x3dbfd134	0.09366074
43	0xbd7402a6	-0.05957284
44	0x3dcdc6b6	0.10047667
45	0x3b8470cb	0.0040417663
46	0x3dc7078a	0.09718235
47	0xbc3d46a5	-0.0115524875
48	0x3d14bc4d	0.03631239
49	0x3da893a0	0.08231282
50	0x3db25538	0.087076604
51	0xbcee2296	-0.029069226
52	0x3c8b0f33	0.016975021
53	0x3db2dd67	0.087336354
54	0xbd60d96a	-0.054894842
55	0xbb4ab976	-0.0030933297
56	0xbda2b291	-0.07944215
57	0x3d5cffe4	0.053954974
58	0x3b6bd5fe	0.0035985704
59	0x3d806813	0.062698506
60	0xbd2ffd19	-0.042965982
61	0xbd4c775e	-0.049918525
62	0x3d62c1c0	0.055360556
63	0x3d8c26d9	0.06843347
64	0x3c04d31d	0.008106974
65	0xbd89b639	-0.06724209
66	0x3dbcb91c	0.09214994
67	0x3b28072a	0.0025639036
68	0x3d9c405f	0.07629465
69	0x3d4f3dd6	0.05059608
70	0xbdb174b2	-0.08664836
71	0xbcdeaf7f	-0.027183292
72	0xbbda4a78	-0.0066617094
73	0x3d828bb4	0.063743025
74	0x3d49774a	0.04918603
75	0xbd64a561	-0.05582178
76	0x3cd6611f	0.026169358
77	0xbc06f967	-0.008238173
78	0x3d32d556	0.043660484
79	0x3d142283	0.036165725
80	0x3d9de07f	0.07708835
81	0xbda758f0	-0.0817126
82	0xbd83917e	-0.06424235
83	0xbd8050ff	-0.06265449
84	0xbc945665	-0.018107602
85	0xbb25fe17	-0.0025328451
86	0x3dd25ae0	0.10271239
87	0xbcd9539c	-0.026529126
88	0x3d1d66f6	0.03842827
89	0xbcdd7f63	-0.027038282
90	0xbdbe472c	-0.09290919
91	0x3c39a8b9	0.0113317305
92	0x3d156d19	0.036480997
93	0xbd2f35d1	-0.042775933
94	0x3da322a4	0.079655915
95	0xbdb7e3c0	-0.08978987

bn2.weight f4 [96]
0	0x3f737678	0.95102644
1	0x3f420bd4	0.757993
2	0x3f3b790f	0.73231596
3	0x3f85b0e5	1.0444609
4	0x3f5ba091	0.8579188
5	0x3f3b694e	0.7320756
6	0x3f58d877	0.847053
7	0x3f1feeda	0.62473834
8	0x3f5f8306	0.873093
9	0x3f211361	0.62920195
10	0x3f1a2eb1	0.60227495
11	0x3f52d302	0.8235322
12	0x3f921b7b	1.1414636
13	0x3f19f0d1	0.6013308
14	0x3f963727	1.1735581
15	0x3f50eba1	0.8160954
16	0x3f73c91b	0.9522874
17	0x3f625a48	0.8841901
18	0x3f48e13f	0.784687
19	0x3f489662	0.78354466
20	0x3f44a378	0.76811934
21	0x3f6f7a9d	0.9354647
22	0x3f532a9d	0.824869
23	0x3f9deffd	1.2338864
24	0x3f7b3e56	0.9814199
25	0x3f2ec16a	0.68263876
26	0x3f482229	0.78177124
27	0x3fa0ca29	1.2561694
28	0x3f6bc024	0.9209006
29	0x3f616a2e	0.8805264
30	0x3f589d69	0.8461519
31	0x3f5eba24	0.8700278
32	0x3face176	1.3506305
33	0x3f9d6c64	1.2298703
34	0x3f689a7c	0.90860724
35	0x3f570a41	0.8400002
36	0x3f6e2c86	0.9303669
37	0x3f7a2e80	0.97727203
38	0x3f9b64e6	1.2140167
39	0x3f5ef837	0.87097496
40	0x3fa2a8a1	1.2707711
41	0x3f6c9378	0.9241252
42	0x3f543b3f	0.829029
43	0x3f89449d	1.0724064
44	0x3f9a026a	1.2031987
45	0x3f338c1a	0.70135653
46	0x3fa1897c	1.2620082
47	0x3f8edfb9	1.1162025
48	0x3f8bec65	1.0931517
49	0x3f5dcb00	0.8663788
50	0x3f9fd0dc	1.2485614
51	0x3f7e4e47	0.9933819
52	0x3fa3dbad	1.2801415
53	0x3f65f92c	0.8983333
54	0x3fa143cb	1.2598814
55	0x3faa1ba7	1.3289689
56	0x3f28fa17	0.66006607
57	0x3f3f003a	0.7460972
58	0x3f854c23	1.041386
59	0x3f609c9b	0.8773896
60	0x3f458808	0.7716069
61	0x3f15eec3	0.58567446
62	0x3f8529ab	1.0403341
63	0x3f8659b7	1.0496129
64	0x3fa91910	1.3210773
65	0x3f91091c	1.1330905
66	0x3f8b2f01	1.087372
67	0x3f990bf7	1.1956776
68	0x3f5f4f27	0.8723015
69	0x3f7c836f	0.9863805
70	0x3fd471d0	1.6597233
71	0x3f93e3e9	1.1553928
72	0x3f80637f	1.0030364
73	0x3f339f6e	0.70165145
74	0x3f0faaa4	0.5611975
75	0x3f773e0a	0.9657904
76	0x3f2546a4	0.64560914
77	0x3faad797	1.3347043
78	0x3f5a2456	0.85211694
79	0x3f8b88aa	1.0901082
80	0x3f384b8d	0.7199028
81	0x3fab2ce9	1.337308
82	0x3f722d13	0.9460003
83	0x3f8f55d9	1.1198074
84	0x3f86646a	1.0499394
85	0x3f810ec1	1.0082628
86	0x3f566cd5	0.83759815
87	0x3f2f3d02	0.68452466
88	0x3fc03064	1.5014768
89	0x3f43cb96	0.7648252
90	0x3f2c2372	0.67241585
91	0x3f6ad771	0.9173499
92	0x3f62a079	0.8852611
93	0x3f8748ef	1.0569133
94	0x3fac96ff	1.348358
95	0x3f89ba07	1.0759896

bn2.bias f4 [96]
0	0xbf39dc06	-0.72601354
1	0xbfb7b081	-1.435074
2	0xbcdca78e	-0.026935365
3	0xbf33cdbb	-0.70235795
4	0xbff52e4d	-1.9154755
5	0xbfa066af	-1.2531337
6	0xbf8b7fbe	-1.0898359
7	0xbe8700db	-0.2636784
8	0xbfd8a516	-1.692538
9	0xbf41017e	-0.753929
10	0xbf38e50a	-0.72224486
11	0xbfa1bff0	-1.26367
12	0xbf51c539	-0.8194156
13	0xbe6defa7	-0.23235951
14	0xbf30f888	-0.6912923
15	0xbf757538	-0.95881987
16	0xbf59b8cb	-0.85047597
17	0xbec0d189	-0.37659863
18	0xbfbb10ad	-1.4614464
19	0xbf84096f	-1.0315379
20	0xbe4976dc	-0.19674248
21	0xbf72da26	-0.9486412
22	0xbf39953d	-0.72493345
23	0xbf936bfa	-1.1517327
24	0xbf6d4a2b	-0.92691296
25	0xbf543425	-0.82892066
26	0xbed03db2	-0.4067207
27	0xbfa69d4f	-1.3016757
28	0xbe828541	-0.2549229
29	0xbf04bb22	-0.5184804
30	0xbf5c39b2	-0.86025536
31	0xbfa4dd54	-1.2880044
32	0xbef3bc91	-0.47604802
33	0xbf956db7	-1.1674107
34	0xbeae9797	-0.3410003
35	0xbff94ce5	-1.9476591
36	0xbea8d6cc	-0.32976377
37	0xbf029b2f	-0.5101804
38	0xbf87c3bc	-1.0606608
39	0xbf2e64b4	-0.6812241
40	0xbfa29c1f	-1.2703894
41	0xbdcb84ad	-0.09937415
42	0xbf8e9337	-1.1138676
43	0xbf592dc5	-0.84835464
44	0xbf80ed48	-1.0072412
45	0xbf146b3d	-0.5797613
46	0xc009dc28	-2.1540623
47	0xbf83ff3b	-1.0312265
48	0xbf1064f5	-0.5640405
49	0xbf05c261	-0.52249724
50	0xbf457212	-0.7712718
51	0xbf9faf5c	-1.247539
52	0xbfa0e115	-1.256869
53	0xbf9ee4a5	-1.2413527
54	0xbf80ee3a	-1.0072701
55	0xc01d4d53	-2.4578445
56	0xbfce2cfc	-1.6107478
57	0xbf0b5a47	-0.5443463
58	0xbf28ebad	-0.6598461
59	0xbfa7e79e	-1.3117559
60	0xbfa30bd6	-1.2737987
61	0x3da32dca	0.07967718
62	0xbfac735e	-1.3472707
63	0xbf1baf13	-0.6081402
64	0xbed452c7	-0.41469404
65	0xbf8d5407	-1.1041268
66	0xbf5a17e0	-0.8519268
67	0xbfe96cf0	-1.823637
68	0xbf3562e6	-0.7085403
69	0xbe97a11b	-0.296151
70	0xbf9976fc	-1.1989436
71	0xbf9daa55	-1.2317606
72	0xbf0ed24f	-0.55789655
73	0xbf4254aa	-0.7591044
74	0xbedf12a6	-0.43568915
75	0xbf8c2b51	-1.0950719
76	0xbf320b53	-0.6954853
77	0xbedc0b8c	-0.4297756
78	0xbfc4dd11	-1.5379964
79	0xbf1e90ab	-0.61939496
80	0xbd9cbe9c	-0.07653543
81	0xbf330489	-0.69928795
82	0xbf4bbae3	-0.7958204
83	0xbf97bd7b	-1.18547
84	0xbfaa0bd5	-1.3284861
85	0xbec9f58c	-0.3944515
86	0xbf9adc86	-1.2098548
87	0xbeafb8bb	-0.34320626
88	0xbed10aa6	-0.40828437
89	0xbe0ca459	-0.13734569
90	0xbf4d2da7	-0.80147785
91	0xbf6fcc74	-0.93671346
92	0xbf96120e	-1.172426
93	0xbedc655d	-0.43046084
94	0xbece6059	-0.40307882
95	0xbf81089c	-1.0080752

bn2.running_mean f4 [96]
0	0xbe941705	-0.28923813
1	0xbf835253	-1.0259498
2	0x3ec2e392	0.38064247
3	0xbeb3e356	-0.3513438
4	0x3f432090	0.7622156
5	0xbfb4fb7f	-1.413925
6	0xbf695c2a	-0.91156256
7	0x3ebc4f90	0.3677945
8	0xbd6d31ee	-0.057908945
9	0xbe39b37c	-0.18134874
10	0xbee3e90a	-0.44513732
11	0xbef3ae12	-0.47593743
12	0xbf9b4a8c	-1.2132125
13	0x3ab7b8e9	0.00140169
14	0x3f33d168	0.70241404
15	0xbf9f6377	-1.2452229
16	0xbeb2af4a	-0.3489936
17	0xbfb032c6	-1.3765495
18	0x3f83dbf3	1.0301498
19	0xbf3f7816	-0.7479261
20	0xbf8039bc	-1.0017619
21	0xbfcb06dd	-1.586147
22	0xbfdc498d	-1.7209946
23	0xbfd963b2	-1.698355
24	0x3ed53441	0.4164143
25	0xbf33e41f	-0.7026996
26	0xbe8b02ca	-0.27150565
27	0xbf03d946	-0.5150341
28	0x3de5dab6	0.112233564
29	0xbf0aa7a7	-0.5416207
30	0xbe4d9ecf	-0.20080112
31	0xbfa5601d	-1.2919956
32	0xc026f4eb	-2.6086986
33	0xbe943602	-0.28947455
34	0xbf5ccf23	-0.86253566
35	0xbf669550	-0.9007158
36	0x3ef406e2	0.476615
37	0xbfd10179	-1.6328574
38	0xbf588234	-0.84573674
39	0xbfdfdd58	-1.7489424
40	0x3e046370	0.12928557
41	0xbea8859d	-0.3291444
42	0x3f820955	1.0159098
43	0xbe144b91	-0.14481951
44	0x3e63d5d9	0.22249545
45	0x3f044c1e	0.51678646
46	0x3eb05b18	0.344445
47	0xbf468af7	-0.77555794
48	0xbe913514	-0.28360808
49	0xbefbc40e	-0.49173015
50	0xbed08ef9	-0.4073408
51	0xbf9cf3a8	-1.2261858
52	0xbf683801	-0.90710455
53	0x3f4ad763	0.79234904
54	0xbfe0b8e9	-1.755643
55	0xbf788f97	-0.970941
56	0xbf9ece57	-1.240672
57	0xbfe5a497	-1.7940854
58	0xbedcd556	-0.43131512
59	0xbef5165f	-0.4786863
60	0xbf31858e	-0.69344413
61	0xbf783fd1	-0.96972376
62	0xbfec5eda	-1.8466446
63	0x3f47584a	0.77869093
64	0x3f8b519d	1.0884281
65	0xbe50e169	-0.20398487
66	0xbfa4af6a	-1.2866032
67	0xbf240453	-0.640691
68	0xbf0af851	-0.5428515
69	0xbc8d7acf	-0.017270474
70	0xbcada042	-0.021194581
71	0x3edbcfe0	0.42932034
72	0x3ed0645c	0.40701568
73	0xbf0e168e	-0.55503166
74	0x3ecf5bbe	0.4049968
75	0xbebd8803	-0.3701783
76	0xbfc133f8	-1.5093985
77	0xbedfa9e8	-0.43684316
78	0xbf831724	-1.0241437
79	0xbf519527	-0.81868213
80	0x3eb7e5d0	0.3591752
81	0x3ec4b16d	0.38416615
82	0xbdffa906	-0.124834105
83	0xbf2eb445	-0.6824382
84	0xbeea50b7	-0.45764706
85	0xbe8e900f	-0.27844283
86	0xbf33f10c	-0.70289683
87	0xbe0d3fbc	-0.13793844
88	0xbf46cf9e	-0.7766055
89	0xbf70b3be	-0.94024265
90	0x3e11b370	0.14228606
91	0xbe901a6f	-0.28145167
92	0xbf1662ab	-0.58744305
93	0x3e2fad65	0.17155989
94	0xbcdf5f2e	-0.027267065
95	0xbfbf94a2	-1.4967234

bn2.running_var f4 [96]
0	0x3f9b1e96	1.2118709
1	0x3f86d09c	1.0532413
2	0x3ff96bda	1.9486039
3	0x3f76e97f	0.96450037
4	0x3f9ca103	1.2236637
5	0x3ff3c0b4	1.9043183
6	0x3f775a5b	0.96622247
7	0x401daef5	2.4638035
8	0x3f566ef7	0.8376307
9	0x3fe77f0f	1.808565
10	0x3f92e6d8	1.1476698
11	0x3f88e1a2	1.0693858
12	0x403d7b7f	2.9606626
13	0x3f21dadf	0.63224596
14	0x3fa412f3	1.2818283
15	0x3f939554	1.1529946
16	0x3f057bc8	0.52142
17	0x3f37b719	0.7176376
18	0x3f4233e4	0.7586043
19	0x403d2435	2.955335
20	0x3f8c49fb	1.0960077
21	0x3fc5af09	1.5444041
22	0x401d3e4f	2.456928
23	0x3f97601c	1.1826205
24	0x3f69c3bf	0.9131431
25	0x3f81f1e0	1.0151939
26	0x3f541473	0.82843703
27	0x3f120bd1	0.5704928
28	0x3f9eb9ed	1.240049
29	0x3f4afb93	0.7929012
30	0x3f51dddf	0.81979173
31	0x3f11e8df	0.5699596
32	0x4017d8ab	2.3725994
33	0x3fee6fc2	1.8627856
34	0x3fcd41a9	1.6035663
35	0x3f99ce0b	1.2016004
36	0x4003e8f3	2.061093
37	0x3f957ef0	1.1679363
38	0x3fff046a	1.9923222
39	0x3f6cab27	0.9244866
40	0x3f93dd76	1.155196
41	0x400c799d	2.1949227
42	0x3f33e984	0.7027819
43	0x3ffcff54	1.976542
44	0x3f724fbf	0.9465293
45	0x3fa912dc	1.320888
46	0x401d9db8	2.4627514
47	0x3faff751	1.374735
48	0x3f8ef9e4	1.117001
49	0x3ff3db59	1.9051315
50	0x400a932b	2.1652324
51	0x3fa6bb8d	1.3025986
52	0x3f71a9af	0.9439954
53	0x3f70e363	0.94096965
54	0x3fdc33b2	1.7203276
55	0x3fd3d5a5	1.6549574
56	0x3fd1de6f	1.6396006
57	0x401ed1fd	2.4815667
58	0x3fd49706	1.6608589
59	0x3f056b69	0.5211702
60	0x3f473ed4	0.77830243
61	0x3fc9da76	1.5769794
62	0x3fd07922	1.6286967
63	0x3fb57264	1.4175534
64	0x3f66da55	0.901769
65	0x3f5e52a5	0.86844856
66	0x3f94ff84	1.1640477
67	0x3f9e8e50	1.238718
68	0x3f70868f	0.9395532
69	0x3fffd751	1.9987584
70	0x40047ff1	2.070309
71	0x3f9b0374	1.2110429
72	0x3ffb05e5	1.9611174
73	0x3f0b1bbb	0.5433919
74	0x3ff5e79b	1.9211305
75	0x3f340d78	0.7033305
76	0x3fbbb349	1.4664088
77	0x3fa26284	1.2686315
78	0x3f930259	1.1485091
79	0x4009b0e0	2.1514206
80	0x4026a6ab	2.6039226
81	0x40204baf	2.5046194
82	0x3f2c20f1	0.67237765
83	0x3f8db805	1.1071783
84	0x3fe04f12	1.752413
85	0x403e80f9	2.9766219
86	0x3fcf37bf	1.6188887
87	0x3fd2bcdf	1.6463889
88	0x40025f07	2.03705
89	0x4032072b	2.7816875
90	0x3f8b42fb	1.0879816
91	0x3f9e9e08	1.2391977
92	0x3fbc9695	1.4733454
93	0x400cf27d	2.2023003
94	0x4052408a	3.2851892
95	0x3f8ce593	1.100756

fc3.weight f4 [4, 96]
0	0xbfcbadb7	-1.5912389
1	0xbd848f75	-0.06472675
2	0xbf1b5fdc	-0.60693145
3	0x3f6ebd5e	0.932577
4	0xbeeb6471	-0.45975068
5	0x3eaa1caf	0.3322501
6	0x3fbeb19a	1.489795
7	0x3ecc6b42	0.3992558
8	0xbd64f3eb	-0.05589668
9	0x3deae893	0.11470141
10	0xbedc522b	-0.4303144
11	0x3f305ad1	0.68888575
12	0x3f441c4e	0.7660569
13	0x3f06829e	0.52543056
14	0x3cb4efa1	0.02208692
15	0x3f159b24	0.5843985
16	0xbc1cb775	-0.009565224
17	0xbe2b95eb	-0.16756408
18	0x3fbd1a27	1.4773606
19	0x3efd4b34	0.49471438
20	0xbe07f1b2	-0.13275793
21	0xbf27deb3	-0.6557419
22	0x3d3bf590	0.045888484
23	0xbf9aff83	-1.2109226
24	0x3ebace1d	0.36485377
25	0xbe07e5ce	-0.13271257
26	0xbf6f47ac	-0.9346874
27	0x3f6b0604	0.91806054
28	0x3da863f7	0.08222192
29	0x3ed69504	0.41910565
30	0xbee8f179	-0.4549673
31	0xbf00fe3f	-0.5038795
32	0x3de8894a	0.11354311
33	0xbef4cfea	-0.47814876
34	0xbf073db3	-0.5282852
35	0x3ec822e0	0.39089108
36	0x3f66b59f	0.9012088
37	0xbedba247	-0.42897245
38	0x3d75806c	0.059936926
39	0x3e8fc9af	0.2808356
40	0xbfa33420	-1.2750282
41	0xbe806a1d	-0.25080958
42	0x3fefd995	1.8738276
43	0xbf91a178	-1.1377401
44	0xbef5f0bc	-0.48035228
45	0x3d978446	0.07398276
46	0xbf4156d5	-0.7552312
47	0xbf094d6b	-0.53633755
48	0xbf308135	-0.68947154
49	0xbe6f7f40	-0.23388386
50	0xbf08eb9b	-0.53484505
51	0x3ecd3137	0.4007661
52	0x3d125d29	0.035733376
53	0x3dc3620d	0.09540186
54	0x3f320e40	0.69552994
55	0xbe2a44d0	-0.16627812
56	0xbe375da0	-0.17906809
57	0x3ec98dad	0.39365903
58	0xbe0c4461	-0.1369796
59	0x3f527bcf	0.82220167
60	0xbf91ace8	-1.1380892
61	0xbf3abfd0	-0.7294893
62	0x3f8dd06c	1.107923
63	0xbe69d425	-0.22834833
64	0xbe8dd437	-0.2770097
65	0xbe7f3f30	-0.24926448
66	0xbf20cdc1	-0.62813956
67	0x3f2231e5	0.63357383
68	0xbeaf3348	-0.34218812
69	0x3e05a087	0.13049518
70	0x3e5cd09d	0.21563955
71	0xbf52b510	-0.8230753
72	0xbea8694d	-0.32892838
73	0x3dc7e314	0.097601086
74	0x3f42d966	0.76112974
75	0xbdfb32d3	-0.12265553
76	0xbedd7c35	-0.43258825
77	0x3e90ce43	0.28282365
78	0xbe855f54	-0.26049292
79	0x3dbde3d9	0.09271974
80	0xbebd219b	-0.369397
81	0xbf4c0b5f	-0.7970485
82	0x3f326a70	0.6969366
83	0x3f41f759	0.7576805
84	0x3f640f76	0.8908609
85	0x3dbfbd80	0.09362316
86	0xbd4d2bed	-0.05009072
87	0xbed566a2	-0.41679865
88	0xbfdac869	-1.709241
89	0xbe24996d	-0.16074152
90	0xbf773972	-0.9657203
91	0x3f077921	0.52919203
92	0xbe151a51	-0.1456082
93	0x3f7a640d	0.97808915
94	0xbd893deb	-0.06701263
95	0xbf66f572	-0.9021827
96	0x3f9fd099	1.2485534
97	0x3f912b28	1.1341295
98	0xbe94b4da	-0.2904423
99	0x3f8bbe24	1.0917401
100	0x3f1f31a6	0.6218513
101	0xbf7a48a1	-0.9776707
102	0x3fa1dec4	1.2646108
103	0xbe2d5de2	-0.16930345
104	0x3e293c52	0.16526917
105	0x3e8251fe	0.2545318
106	0x3f2c692e	0.6734799
107	0x3e9786dc	0.29595077
108	0xbf7000d0	-0.9375124
109	0x3c6402ee	0.013916714
110	0x3fcb09b0	1.5862331
111	0xbea8e0b9	-0.3298395
112	0x3ebf3743	0.3734685
113	0xbf4b2c60	-0.79364586
114	0xbf12d60d	-0.57357866
115	0xbe5e4f19	-0.21709861
116	0xbfc1cfdd	-1.514156
117	0xbe45866e	-0.19289562
118	0xbfb22536	-1.3917606
119	0x3fae35d3	1.3610176
120	0xbfb67732	-1.4255126
121	0xbde4ec28	-0.11177856
122	0x3f5445f0	0.82919216
123	0xbf551753	-0.83238715
124	0x3f61c93d	0.8819769
125	0xbfa94f41	-1.3227311
126	0x3e7a4363	0.24439768
127	0xbf7de51f	-0.99177736
128	0x3fc5f05d	1.5463978
129	0xc0005cc5	-2.0056622
130	0xbf50d622	-0.8157674
131	0xbf8de060	-1.1084099
132	0xbdc86cb9	-0.09786362
133	0xbf135f4d	-0.5756729
134	0x3fbeba7d	1.4900662
135	0xbdbf6531	-0.093454726
136	0x3df860b9	0.121278234
137	0x3ec7be5d	0.39012423
138	0xbf06547e	-0.52472675
139	0x3f7fd5e5	0.9993575
140	0xbdbf7504	-0.09348491
141	0x3cc40550	0.023928314
142	0xbe313a1f	-0.17307328
143	0xbd11842f	-0.03552645
144	0x3ed921fe	0.42408746
145	0x3fa934c7	1.3219231
146	0xb9d826ce	-0.00041227642
147	0x3f3db1fc	0.7409971
148	0x3fb75079	1.4321433
149	0xbeac4b04	-0.33650982
150	0xbeaafbe9	-0.33395317
151	0xbf1c5e77	-0.6108164
152	0xbd9d8357	-0.07691067
153	0xbe0733e0	-0.13203382
154	0xbfc251e1	-1.5181237
155	0xbfa917b7	-1.3210362
156	0xbdd2aba2	-0.102866426
157	0x3d51ba1c	0.05120288
158	0xbf38e3d1	-0.7222262
159	0xbfd5a8b8	-1.6692114
160	0x3f8330d4	1.0249276
161	0x3eb5c390	0.35500765
162	0xbf210c6d	-0.62909585
163	0x3f1143b3	0.56743926
164	0xbe5f7f23	-0.21825843
165	0x3f7250bf	0.9465446
166	0x3f7ebeba	0.99509776
167	0xbefc113d	-0.49231902
168	0xbf65d11c	-0.897722
169	0x3ea6d558	0.32584643
170	0xbf3e366c	-0.7430179
171	0xbf593db2	-0.84859765
172	0x3f433934	0.7625916
173	0xbf95e982	-1.1711886
174	0x3f142095	0.57862216
175	0x3fdfa53f	1.7472304
176	0x3f728606	0.94735754
177	0xbef2533a	-0.47329122
178	0x3fe2dba4	1.7723279
179	0x3f408282	0.7519914
180	0x3f356fbd	0.70873624
181	0xbfaed2ea	-1.3658116
182	0x3cf5a7bf	0.029987214
183	0xbe990389	-0.2988551
184	0xbe658406	-0.22413644
185	0x3e37a7e8	0.17935145
186	0x3cfdea95	0.030995646
187	0x400ad576	2.1692786
188	0x3fb3c69a	1.4044983
189	0xbf1de29b	-0.616739
190	0x3fab8fb7	1.3403233
191	0xbf7508e4	-0.9571669
192	0x3e23b737	0.1598786
193	0x3fc1ae7a	1.5131371
194	0x3e3ca211	0.18421198
195	0x3e1b1509	0.15144743
196	0xbf9e606b	-1.2373174
197	0x3f80b314	1.005465
198	0x3e83ab3a	0.25716573
199	0xbe8cf767	-0.27532503
200	0xbd3cd235	-0.046098907
201	0xbd67107c	-0.056412205
202	0x3f02f848	0.511601
203	0xbe3227b1	-0.17397954
204	0x3d00c36e	0.031436376
205	0x3e3e9967	0.18613206
206	0x3dede731	0.11616362
207	0xbe9fb9ce	-0.31196445
208	0xbde12fac	-0.10995421
209	0xbe239eaa	-0.15978494
210	0x3e6db919	0.2321514
211	0xbe5617ed	-0.20907564
212	0xbd339c47	-0.04385021
213	0x3eb8f4bc	0.36124218
214	0xbdb7874f	-0.08961355
215	0x3dbee005	0.09320072
216	0xbbe3e46e	-0.006954721
217	0x3f0ea50b	0.55720586
218	0x3d03a348	0.03213814
219	0x3d78ea62	0.0607704
220	0xbdc5c418	-0.096565425
221	0x3de82fd4	0.113372475
222	0xbe3a6313	-0.18201856
223	0xbf2adc12	-0.6674205
224	0xbcaa8b45	-0.020818362
225	0x3e2622e1	0.16224243
226	0x3a22aa79	0.0006205212
227	0x3fe11913	1.7585777
228	0x3dfa8d4a	0.1223398
229	0xbe57371a	-0.21017113
230	0x3de6f2df	0.11276793
231	0xbf51f531	-0.8201476
232	0xbdfc7baa	-0.123282745
233	0x3e97bb9a	0.29635316
234	0xbd9dbd4e	-0.07702123
235	0x3db3e695	0.087842144
236	0xbd97abba	-0.07405801
237	0xbf176f33	-0.5915405
238	0xbf6f0d5a	-0.9337975
239	0xbda66cfb	-0.08126255
240	0xbdad5e31	-0.08465231
241	0x3c83afba	0.016075004
242	0x3df6a00d	0.12042246
243	0xbf022371	-0.5083533
244	0x3e59f354	0.21284229
245	0x3dbecfec	0.09317002
246	0x3dfa7633	0.12229576
247	0x3fa069fe	1.2532346
248	0x3f348f6d	0.7053135
249	0xbd195fbf	-0.037444826
250	0xbd6ae53b	-0.057347517
251	0x3f1cfd74	0.6132424
252	0x3c4704bf	0.012147128
253	0xbe782f11	-0.24236704
254	0x3e97fbe2	0.2968436
255	0xbe6d9857	-0.23202644

fc3.bias f4 [4]
0	0xbd0ab68f	-0.033865508
1	0xbe86116b	-0.26185164
2	0xbe6618cd	-0.22470398
3	0xbcfb45c1	-0.03067291
