weights/critic_final.pth (torch_old, 54300 bytes, 9 tensors)

bn0.weight f4 [33]
0	0x3f0a4721	0.54014784
1	0x3ea100a4	0.314458
2	0x3f20e8c4	0.6285517
3	0x3d537f46	0.05163505
4	0x3d1f740f	0.03892904
5	0x3d9ae889	0.07563884
6	0x3cff217a	0.031143893
7	0x3d92aa5b	0.07161399
8	0x3d9643bf	0.0733714
9	0x3cf45b85	0.029828796
10	0x3dd0021d	0.10156653
11	0x3ddddb25	0.10832814
12	0x3e0f5d37	0.14000402
13	0x3fa1753e	1.2613904
14	0x3f0fa601	0.56112677
15	0x3fa275e2	1.2692225
16	0x3d933c35	0.07189218
17	0x3da600cb	0.0810562
18	0x3d98685b	0.07441779
19	0x3e08b674	0.1335085
20	0x3dfccf47	0.123442225
21	0x3da62a95	0.08113591
22	0x3d941cee	0.072320804
23	0x3f03615f	0.5132045
24	0x3eada932	0.33918148
25	0x3f20b389	0.6277395
26	0x3f9eb38b	1.2398542
27	0x3ede3c3e	0.43405336
28	0x3f626b2e	0.88444793
29	0x3ea178ce	0.3153748
30	0x3ec11894	0.37714064
31	0x3f1ddb52	0.6166278
32	0x3f74b187	0.95583385

bn0.bias f4 [33]
0	0x3cc6c74d	0.024264956
1	0xbe002db5	-0.12517436
2	0x3d2b5f5e	0.041838996
3	0x3d223435	0.03960057
4	0x3c3f815d	0.011688557
5	0xbcbe016e	-0.023194041
6	0xbbafb59f	-0.005362227
7	0x3d054d4c	0.03254442
8	0xbb39febc	-0.0028380593
9	0x3a4fe096	0.0007929889
10	0x3d215c5a	0.039394714
11	0xbd561137	-0.05226251
12	0x3d24c7d6	0.04022964
13	0xbd3ccab4	-0.04609175
14	0xbda5f7bd	-0.08103893
15	0x3d9f078b	0.077651106
16	0xbaaf66e4	-0.0013382104
17	0x3bcee8a5	0.0063143545
18	0x3b234419	0.0024912416
19	0xbd1e3ffd	-0.038635243
20	0x3ce17a75	0.027524212
21	0x3bb06974	0.0053836647
22	0x3cb4c885	0.022068271
23	0xbd59adb4	-0.05314417
24	0xbde0ee21	-0.109829195
25	0xbc4f8c1b	-0.012667681
26	0xbe0ca15b	-0.13733427
27	0xbaba0a42	-0.0014193731
28	0x3c8da9e2	0.01729292
29	0x3b1266fb	0.0022339213
30	0xba89c7a2	-0.0010511766
31	0x3a5e8db4	0.00084897433
32	0xbddb4cb5	-0.1070799

bn0.running_mean f4 [33]
0	0x3e0a63eb	0.13514678
1	0xc03c4843	-2.9419105
2	0xbeab9644	-0.3351308
3	0x3f6bd6fb	0.9212491
4	0x3c8a2990	0.016865522
5	0x39422cda	0.0001851799
6	0xbd3f59a6	-0.046716355
7	0xbaac9d2b	-0.0013169398
8	0x3bfa4775	0.007637913
9	0x3a9c17e2	0.0011908973
10	0x3bc338d0	0.0059577003
11	0xba2ae634	-0.0006519288
12	0x3c23e893	0.0100041805
13	0xbea5e144	-0.32398427
14	0xc0472a68	-3.1119633
15	0xbc99eba2	-0.018789116
16	0xbd49d3d5	-0.049274284
17	0x3d390389	0.045169387
18	0xbd00b30b	-0.03142075
19	0xbe9fafe7	-0.3118889
20	0x3caf2fb2	0.021385048
21	0xbcbacc06	-0.022802364
22	0x3c5ae168	0.013359405
23	0xbc4cd0dc	-0.012500968
24	0x3dd9cba6	0.10634546
25	0x3c8d49c4	0.017247088
26	0xbe86aede	-0.26305288
27	0xbf7ffffc	-0.99999976
28	0x3c4d22c0	0.012520492
29	0x00000000	0.0
30	0x3f7ffffc	0.99999976
31	0x00000000	0.0
32	0x3b0f05c1	0.0021823498

bn0.running_var f4 [33]
0	0x401cb87b	2.4487598
1	0x3e87e130	0.26538992
2	0x40914bce	4.5405035
3	0x3c863ee5	0.016387412
4	0x3d1f74f8	0.03892991
5	0x3b57c9a6	0.0032926588
6	0x3db8a84f	0.09016477
7	0x3e29282b	0.16519229
8	0x3cd27b88	0.02569367
9	0x3d61b8c8	0.05510786
10	0x3f908a40	1.129219
11	0x3ea396d0	0.31950998
12	0x3ff275ab	1.894216
13	0x415b8f6d	13.722516
14	0x3fb6fc9b	1.4295839
15	0x41af7389	21.931414
16	0x3db38c7c	0.0876703
17	0x3e2faa03	0.17154698
18	0x3d8daabe	0.06917332
19	0x3f1186aa	0.56846106
20	0x3f2db37b	0.6785199
21	0x3e3ffa23	0.18747763
22	0x3e4e93ba	0.2017354
23	0x409b2a27	4.8488955
24	0x3ffcee13	1.9760154
25	0x40ec2a36	7.3801527
26	0x42020ea1	32.514286
27	0x00000004	6e-45
28	0x41fb7bdb	31.435476
29	0x00000004	6e-45
30	0x00000004	6e-45
31	0x00000004	6e-45
32	0x3ea6beb3	0.32567367

fcs1.weight f4 [96, 33]
0	0xbd93c756	-0.07215755
1	0x3ea95844	0.33075154
2	0xbe463c25	-0.19358881
3	0xbd84f485	-0.06491951
4	0xbdf32f42	-0.11874248
5	0xbe1dc2dd	-0.15406366
6	0xbdd7fc95	-0.10546223
7	0xbe407c06	-0.18797311
8	0xbc987cb3	-0.018614149
9	0x3e33ada8	0.17546713
10	0xbdd2f413	-0.1030046
11	0x3d5e9839	0.05434439
12	0x3e166d3b	0.14690106
13	0x3da38282	0.07983877
14	0xbe851393	-0.25991496
15	0xbca4e478	-0.020128474
16	0xbe8767f9	-0.26446512
17	0xbe8ab752	-0.27092987
18	0xb9bb926e	-0.00035776518
19	0x3e36978d	0.1783125
20	0xbbf71d81	-0.007541359
21	0x3e9622cf	0.29323432
22	0x3d6370db	0.05552755
23	0x3e8b6a0c	0.27229345
24	0xbcfc020c	-0.030762695
25	0xbe371814	-0.17880279
26	0xbe166a0f	-0.14688896
27	0xb88c3aac	-6.686649e-05
28	0x3efa4062	0.48877245
29	0x3c80048a	0.015627164
30	0xbda44d11	-0.08022512
31	0x3c1f372e	0.009717746
32	0xbf03319c	-0.5124757
33	0xbeb23a1d	-0.34809962
34	0x3dabe985	0.0839415
35	0x3e22583f	0.15853976
36	0xbd630430	-0.055423915
37	0x3e0269c0	0.12735653
38	0x3e106331	0.14100339
39	0xbe7b497e	-0.24539754
40	0x3da0831e	0.078375086
41	0x3dc3da3c	0.09563109
42	0xbc931e60	-0.01795882
43	0xbe7f2abc	-0.24918646
44	0x3d8b7af8	0.06810564
45	0xbdeb0440	-0.1147542
46	0x3e39e026	0.18151912
47	0xbda09144	-0.07840207
48	0xbe539315	-0.20661576
49	0xbddfb4dd	-0.10923169
50	0xbcbf4c89	-0.023351924
51	0xbe322dbe	-0.17400262
52	0xbe8678e9	-0.26264122
53	0xbc92692e	-0.01787242
54	0xbd3909dc	-0.04517542
55	0x3e070240	0.13184452
56	0x3dcc4a48	0.099751055
57	0xbd8b3615	-0.06797425
58	0xbe5bd910	-0.21469522
59	0xbed4212c	-0.41431558
60	0xbcb82da2	-0.022482697
61	0x3d58e99b	0.05295716
62	0x3ce614ad	0.02808603
63	0xbd4d3f28	-0.05010906
64	0xbd4fd05c	-0.050735816
65	0x3f3fb545	0.7488597
66	0xbec325a6	-0.3811466
67	0x3e6c8214	0.23096496
68	0x3edb783f	0.42865178
69	0x3cdfbbe8	0.02731128
70	0xbca51905	-0.020153532
71	0x3def795b	0.116930686
72	0x3df38c59	0.118920036
73	0x3e241884	0.16024977
74	0xbe5e5c6e	-0.21714947
75	0xbe2c40eb	-0.16821639
76	0xbe36cdc9	-0.17851938
77	0x3d587a95	0.05285128
78	0x3c021b57	0.007941089
79	0x3ec14d4c	0.37754285
80	0xbe09496b	-0.13406913
81	0xbf1f0323	-0.6211416
82	0x3db32b9e	0.08748554
83	0xbd29f222	-0.04149068
84	0xbd00ef9b	-0.031478506
85	0x3b2a9820	0.0026030615
86	0xbd8e90f7	-0.069612436
87	0xbe300fd0	-0.17193532
88	0x37e6f1af	2.753068e-05
89	0x3dc0ab51	0.09407676
90	0xbe320789	-0.17385687
91	0xbda8a28f	-0.082341306
92	0xbe5f7feb	-0.2182614
93	0xbc2c809d	-0.010528711
94	0x3f115fd8	0.5678687
95	0x3a9e6345	0.0012084028
96	0x3d01ed17	0.031720247
97	0xbadcc30a	-0.0016842794
98	0x3d5d53f5	0.054035146
99	0xbd6399f7	-0.055566754
100	0xbd9ee4aa	-0.07758458
101	0x3c1e542f	0.009663626
102	0xbd80a754	-0.06281915
103	0xbc984573	-0.018587803
104	0x3e905d17	0.28196022
105	0x3bafdd6b	0.0053669713
106	0xbe1bc3ec	-0.15211457
107	0x3f2432c9	0.6413999
108	0xbd4dba1f	-0.050226327
109	0x3d07a3a3	0.03311504
110	0xbddca055	-0.107727684
111	0xbe19d047	-0.15020858
112	0x3d7c0f9c	0.061538324
113	0x3c8756a1	0.0165208
114	0x3d0178a5	0.031609196
115	0xbd6899be	-0.056787245
116	0x3b853ab2	0.004065835
117	0x3da48936	0.080339834
118	0xbe6d17d7	-0.23153625
119	0xbf0bf0ea	-0.5466448
120	0xbed10a1b	-0.40828022
121	0xbebebcc4	-0.37253392
122	0x3d413404	0.047168747
123	0x3da0bf53	0.07848992
124	0xbe347bbe	-0.17625329
125	0x3daa614b	0.083193384
126	0x3cfa4f12	0.030555282
127	0xbe1249b9	-0.14285935
128	0x3d92d024	0.07168606
129	0xbdcac8ef	-0.09901606
130	0xbe205cf6	-0.15660462
131	0x3da017a1	0.07817007
132	0xbedb62d4	-0.42848837
133	0x3e529ad1	0.2056687
134	0xbf1c5e86	-0.6108173
135	0x3e64164c	0.2227413
136	0xbab3b135	-0.0013709428
137	0xbe00e11f	-0.12585877
138	0x3d2a78d1	0.041619126
139	0x3eb72794	0.35772383
140	0x3edc6888	0.430485
141	0x3e69b7a3	0.22823958
142	0xbc46d85b	-0.012136544
143	0x3e41f7c8	0.18942177
144	0xbec8061c	-0.3906716
145	0x3ec60b90	0.38680696
146	0x3bf2fda7	0.0074154916
147	0x3e353c09	0.17698683
148	0xbdfc21db	-0.12311145
149	0xbe77ae3a	-0.24187556
150	0x3d51433c	0.05108951
151	0x3ec8b72d	0.39202252
152	0xbcf2d5f0	-0.029643029
153	0x3c5f6281	0.013634325
154	0x3e68f2e0	0.227489
155	0x3eab2fbb	0.33434853
156	0xbe96df85	-0.29467407
157	0xba536b64	-0.00080650137
158	0x3c768cd8	0.015048228
159	0xbc936012	-0.017990146
160	0x3e3ef328	0.18647444
161	0xbd3f535f	-0.04671037
162	0x3d1cb778	0.038260907
163	0xbc972101	-0.018448355
164	0x3e7130e7	0.23553811
165	0x3d4021fb	0.046907406
166	0xbdf04ea6	-0.11733751
167	0xbec2c93d	-0.38044158
168	0xbe52e1cc	-0.20593947
169	0xbd407b66	-0.046992682
170	0x3e1b0826	0.15139827
171	0x3dafc10a	0.08581741
172	0xbd7114d2	-0.058857746
173	0x3e033b30	0.12815547
174	0xbe1f845b	-0.15577833
175	0x3e89c51b	0.26908192
176	0xbb80d98f	-0.003932185
177	0xbe096237	-0.13416372
178	0xbe7eac36	-0.24870381
179	0x3d84926b	0.064732395
180	0x3e5eac72	0.2174547
181	0x3ece925e	0.40346044
182	0xbe7b5ae1	-0.24546386
183	0xbc296849	-0.010339805
184	0x3ed185b4	0.4092232
185	0xbcf2f924	-0.029659815
186	0xbdd951fb	-0.1061134
187	0xbf1ef646	-0.62094533
188	0xbeb934a9	-0.3617299
189	0x3d8c2971	0.06843842
190	0x3e156a97	0.14591442
191	0xbd692648	-0.056921273
192	0x3c2e6147	0.01064331
193	0x3da6e650	0.081493974
194	0xbb2fc9a2	-0.0026823063
195	0x3c67f0fe	0.014156578
196	0xbd0524e1	-0.032505874
197	0x3da5fbc8	0.08104664
198	0x3dd3cf40	0.10342264
199	0x3ee12508	0.43973565
200	0xbed80082	-0.42187887
201	0xbef8d7e3	-0.48602208
202	0x3d94de8b	0.07269009
203	0x3e7598f3	0.23984127
204	0x3e631ea8	0.22179663
205	0xbf1e37d8	-0.6180396
206	0x3d172a2c	0.036905453
207	0xbd3a1a9c	-0.045435533
208	0x3e8aae93	0.27086315
209	0x3f1251ea	0.5715624
210	0x3eb73519	0.35782698
211	0x3c95df25	0.01829488
212	0xbeaf56ca	-0.34245902
213	0x3ebf2f2e	0.37340683
214	0xbea53091	-0.32263616
215	0x3e8cd4d2	0.2750612
216	0xbd190efb	-0.037367802
217	0x3e157aaa	0.14597574
218	0x3dd1503d	0.10220382
219	0xbef01d25	-0.46897236
220	0xbe2ac3fb	-0.16676323
221	0xbdf1c5e3	-0.11805322
222	0xbdcc0a4e	-0.09962903
223	0xbe0ece24	-0.13945824
224	0xbdd018c4	-0.10160974
225	0x3c87fcc3	0.016600018
226	0xbdaeda2c	-0.08537707
227	0x3d4272f3	0.047472905
228	0xbd0e8e27	-0.034803536
229	0xbd049e09	-0.032377277
230	0xbc2f8a9a	-0.0107141975
231	0xbeb58688	-0.35454202
232	0x3d0f0f4e	0.034926705
233	0xbe9fe7f6	-0.3123166
234	0xbdcc57b5	-0.09977666
235	0x3e17d286	0.14826402
236	0x3ec13368	0.37734532
237	0x3ecc5497	0.39908287
238	0x3d98e84a	0.074661806
239	0x3e8aac1a	0.27084428
240	0x3daa555f	0.083170645
241	0x3e4bd3bd	0.1990499
242	0x3e716290	0.23572755
243	0x3ef2a696	0.4739272
244	0x3ef2996d	0.4738268
245	0xbdb7116b	-0.08938869
246	0x3d425164	0.0474409
247	0x3f068a49	0.52554756
248	0xbe555da1	-0.20836498
249	0xbe4954c2	-0.19661239
250	0xbd3f5089	-0.046707664
251	0xbdabbc7f	-0.08385562
252	0x3eb34101	0.35010532
253	0xbeca3283	-0.39491662
254	0x3ee09ef4	0.43871272
255	0xbeadeb9b	-0.33968815

fcs1.bias f4 [96]
0	0xbed9458a	-0.42435867
1	0xbea21e14	-0.31663573
2	0xbc1817de	-0.009283034
3	0x3b4d8529	0.0031359887
4	0xbe1543dc	-0.14576668
5	0xbd083a04	-0.033258453
6	0xbe60b455	-0.21943791
7	0xbf13f6f3	-0.5779869
8	0xbe8b7af7	-0.27242252
9	0xbea61ea8	-0.32445264
10	0xbea45fe8	-0.3210442
11	0xbe0cb348	-0.13740265
12	0xbdafc78c	-0.085829824
13	0xbee25820	-0.4420786
14	0xbedf4c6c	-0.43612993
15	0xbec5acdb	-0.3860844
16	0xbec63b97	-0.38717338
17	0xbec7c9b8	-0.39021087
18	0xbe2d444e	-0.16920587
19	0xbe282ed5	-0.16424115
20	0x3dc10036	0.09423868
21	0xbed41d90	-0.41428804
22	0xbea2221e	-0.31666654
23	0xbe0c567e	-0.13704869
24	0xbe9ff5e2	-0.3124228
25	0xbee9d2ef	-0.45668742
26	0xbeec9bf5	-0.46212736
27	0xbe7cba2c	-0.24680394
28	0xbd154314	-0.036440924
29	0xbd039dbd	-0.032132853
30	0xbe96acc6	-0.2942869
31	0xbd1a24bb	-0.037632685
32	0xbe806521	-0.25077155
33	0xbb8929f5	-0.00418591
34	0xbec4c9ce	-0.38435215
35	0x3debbfbf	0.11511182
36	0xbec455d8	-0.38346744
37	0xbee69362	-0.4503432
38	0xbe6df9a4	-0.23239762
39	0x3da2bade	0.07945798
40	0xbea2f621	-0.31828406
41	0xbde97374	-0.11398974
42	0xbc8a6001	-0.016891481
43	0xbe21e1f3	-0.15808849
44	0xbeafce15	-0.34336916
45	0xbeb0175f	-0.3439283
46	0x3ca778f5	0.020443419
47	0xbe4cd5b0	-0.2000339
48	0xbe291e04	-0.16515356
49	0xbe33bb37	-0.17551886
50	0xbe6acbcb	-0.22929303
51	0xbeb890c7	-0.36047956
52	0xbe65b599	-0.22432555
53	0xbef37c6b	-0.4755586
54	0xbeab1c2c	-0.3341993
55	0xbebc9e03	-0.36839303
56	0xbf012438	-0.5044589
57	0xbeba14e1	-0.36344054
58	0xbeed01d3	-0.46290454
59	0xbe80d3b5	-0.2516152
60	0xbe350a6e	-0.1767976
61	0xbeb47f4e	-0.35253376
62	0xbef79caa	-0.48361713
63	0xbec17b2f	-0.37789294
64	0xbed68bbf	-0.41903493
65	0xbed6b0f5	-0.41931883
66	0xbe3d467e	-0.18483922
67	0x3d064c18	0.032787412
68	0xbe388e28	-0.18022978
69	0xbd6dfc31	-0.058101837
70	0xbe2968fa	-0.16543952
71	0xbe26e8ab	-0.16299693
72	0xbe26d3c3	-0.16291718
73	0xbe983558	-0.29728198
74	0x3ea54eca	0.32286674
75	0xbdaf4ce6	-0.08559589
76	0x3e61a1d0	0.22034383
77	0xbea4440b	-0.32083163
78	0xbe8a94a6	-0.27066535
79	0xbf019703	-0.5062105
80	0xbe3ce025	-0.1844488
81	0xbf0f00c9	-0.55860573
82	0xbf13bd58	-0.5771079
83	0xbdc1e522	-0.09467532
84	0xbd46f532	-0.04857368
85	0xbf0b01e1	-0.5429974
86	0xbf15ee40	-0.58566666
87	0xbe85e8a8	-0.26154065
88	0xbe91f436	-0.2850663
89	0xbebd2dd9	-0.3694904
90	0xbf004da9	-0.501185
91	0xbeb33365	-0.35000148
92	0x3d1c09c7	0.038095262
93	0xbe2e7038	-0.17034996
94	0xbe68bc04	-0.22727972
95	0x3d773e8a	0.060362376

fc2.weight f4 [96, 100]
0	0xbe23fe27	-0.1601492
1	0xbe9cd314	-0.3062979
2	0xbe7ae7ee	-0.24502537
3	0xbdbef372	-0.09323777
4	0x3dbaa70a	0.091138914
5	0x3e631610	0.22176385
6	0xbdf85053	-0.12124696
7	0x3e28820e	0.16455862
8	0x3daf2e67	0.085537724
9	0xbf25ad6d	-0.6471775
10	0x3eb8189f	0.35956284
11	0x3b841f58	0.004032057
12	0xbed71603	-0.4200898
13	0xbd2cffc0	-0.04223609
14	0x3e8169c3	0.25276002
15	0x3e70bd25	0.23509653
16	0x3e34e414	0.1766513
17	0xbd475910	-0.04866892
18	0x3e71313d	0.23553939
19	0x3ed150ac	0.4088186
20	0x3daca46d	0.08429799
21	0x3e078d77	0.13237558
22	0xbe3752df	-0.17902707
23	0x3ec6eb7f	0.38851544
24	0x3e499e53	0.19689302
25	0xbe12109c	-0.14264148
26	0xbdad349e	-0.084573016
27	0x3e772a29	0.24137177
28	0x3ea55d78	0.32297873
29	0x3d9bb284	0.076024085
30	0xbe566b7b	-0.20939438
31	0x3d193678	0.03740546
32	0x3e2ad5aa	0.16683069
33	0x3dcdbbfe	0.10045622
34	0xbe09a76d	-0.13442774
35	0x3de3e146	0.11126952
36	0xbf33f71e	-0.70298946
37	0xbdfe62bc	-0.12421176
38	0x3e03f3b7	0.12885939
39	0x3eedc2e9	0.46437767
40	0xbda9e627	-0.08295851
41	0xbe14fe1e	-0.14550063
42	0xbf7c7463	-0.9861509
43	0x3dcb0c95	0.09914509
44	0xbee49807	-0.44647238
45	0xbea23541	-0.31681255
46	0x3e39d852	0.18148926
47	0xbd858993	-0.06520381
48	0x3e25e760	0.16201544
49	0xbf466af6	-0.7750696
50	0xbd85f94e	-0.06541692
51	0x3e2c0fc8	0.16802895
52	0x3e7a39c9	0.24436106
53	0xbef7e4e8	-0.4841683
54	0x3c881180	0.016609907
55	0xbec10aeb	-0.37703642
56	0x3e6624ca	0.22474971
57	0x3eb8b534	0.36075747
58	0xbe8094f8	-0.25113654
59	0xbe33057d	-0.17482562
60	0x3e8107a7	0.2520115
61	0xbe54c879	-0.20779599
62	0xbe0ec547	-0.13942443
63	0xbea5959a	-0.323407
64	0xbe2e7d4e	-0.17039987
65	0xbf28a272	-0.6587287
66	0x3e9508b6	0.29108208
67	0xbdc3e457	-0.09565037
68	0x3e15517a	0.14581862
69	0x3db984d4	0.09058538
70	0xbf64d5ae	-0.8938855
71	0xbf21344a	-0.6297041
72	0xbf31ffb9	-0.69530827
73	0xbd1cb37f	-0.03825712
74	0x3d624b7c	0.05524777
75	0xbe55fc75	-0.20897086
76	0x3db3bd2f	0.08776318
77	0xbdf7760c	-0.120830625
78	0x3c1e92a2	0.009678515
79	0xbee8d8af	-0.45477816
80	0xbea9c61a	-0.33158952
81	0xbf0ba2d1	-0.54545313
82	0x3e138e16	0.1440967
83	0x3dda5412	0.106605664
84	0x3f1bd256	0.6086782
85	0xbc710994	-0.014711756
86	0xbf1b36d1	-0.6063052
87	0x3ea71ab5	0.32637563
88	0x3dc0670d	0.093946554
89	0x3cc1a37d	0.023637528
90	0xbee3e064	-0.44507134
91	0xbdb45e75	-0.08807079
92	0x3ebad290	0.3648877
93	0x3e8cb882	0.27484518
94	0x3e305d0a	0.17222992
95	0x3dcc7c85	0.09984688
96	0x3c15700e	0.009120954
97	0xbcb12314	-0.021623172
98	0xbd533e12	-0.051572867
99	0x3c947064	0.018119998
100	0x3d1f484f	0.03888732
101	0xbee20266	-0.44142455
102	0x3dbdcdde	0.09267782
103	0x3dca3e27	0.09875136
104	0x3e059544	0.13045222
105	0xbea49eed	-0.321525
106	0xbe4952d1	-0.19660498
107	0x3ec5db5e	0.38643926
108	0xbee442c0	-0.44582176
109	0x3df46f81	0.1193533
110	0x3ea47cc1	0.3212643
111	0x3d6dbc5e	0.05804097
112	0xbedbe58c	-0.42948568
113	0x3e07f8a5	0.13278444
114	0xbe9f226b	-0.31080946
115	0xbea06d60	-0.31333447
116	0x3ed9c212	0.42530876
117	0x3d0e5b54	0.034755066
118	0xbe2b1e20	-0.1671071
119	0xbe6331e9	-0.22187008
120	0x3da30b69	0.07961161
121	0x3e2e5c77	0.1702746
122	0xbe8ae87d	-0.271305
123	0x3e005362	0.12531808
124	0xbf50cc8d	-0.8156212
125	0x3e3cadd3	0.18425684
126	0xbf2e8196	-0.6816648
127	0x3eb4f7bb	0.35345253
128	0x3d33d5a0	0.0439049
129	0x3e3f2ecc	0.18670195
130	0xbd98f09c	-0.074677676
131	0xbaf1488d	-0.0018408463
132	0x3d8e0301	0.06934167
133	0xbe0a166c	-0.13485116
134	0x3e8636af	0.26213595
135	0x3e25011c	0.16113704
136	0xbd9a64a2	-0.075387254
137	0x3e894519	0.2681053
138	0xbd651243	-0.05592562
139	0x3e0ab547	0.13545714
140	0x3d5a6af0	0.05332464
141	0xbdf2b314	-0.11850563
142	0x3e859271	0.26088288
143	0x3c07b221	0.008282215
144	0xbe636850	-0.22207761
145	0x3e1b9d1f	0.15196656
146	0xbee716c8	-0.45134568
147	0xbe926231	-0.2859054
148	0x3ec4577f	0.38348004
149	0xbf168c87	-0.5880818
150	0x3e115e5a	0.14196149
151	0xbea56c1c	-0.32309043
152	0x3b9391fb	0.004503486
153	0xbe4ba17f	-0.19885825
154	0xbecb2695	-0.39677873
155	0xbf020aaa	-0.5079752
156	0x3ea945fd	0.3306121
157	0xbcdf8bb0	-0.027288288
158	0xbdf375d4	-0.11887708
159	0xbe4b53e3	-0.19856219
160	0x3db5371c	0.08848402
161	0x3e30f842	0.17282203
162	0xbd7be7f6	-0.061500512
163	0xbe0227a5	-0.12710436
164	0x3e889bed	0.26681462
165	0xbe6112bd	-0.21979804
166	0x3ea24b28	0.31697965
167	0x3d308564	0.04309596
168	0xbdacdbed	-0.08440385
169	0xbd703fb9	-0.05865452
170	0x3e26a02b	0.16272037
171	0x3e41e7b7	0.18936048
172	0xbf34271f	-0.70372194
173	0xbd9d3121	-0.07675386
174	0x3ca8d9c4	0.020611651
175	0x3e4c6046	0.199586
176	0x3e937f85	0.28808227
177	0x3e651dff	0.22374724
178	0xbe3be179	-0.1834773
179	0xbca2bec7	-0.01986636
180	0xbe21f0f9	-0.1581458
181	0xbe9c8f95	-0.30578294
182	0xbe5e339c	-0.21699375
183	0xbd0b8dbf	-0.034070726
184	0xbe5c37f4	-0.2150572
185	0xbe495c5e	-0.19664142
186	0xbf0f6598	-0.56014395
187	0xbea357c7	-0.31902906
188	0x3e6c6345	0.23084743
189	0x3d830a53	0.063984536
190	0xbd4f97f8	-0.050682038
191	0x3d5e9e64	0.05435027
192	0x3d42af7d	0.04753064
193	0xbd9c5706	-0.07633786
194	0x3c9976a7	0.018733336
195	0x3d87d0e5	0.0663164
196	0xbd28f05a	-0.041244842
197	0xbd5c461f	-0.05377781
198	0xbd753a07	-0.059869792
199	0x3d36487e	0.044502728
200	0xbe4ad0f3	-0.1980627
201	0x3c7d99b1	0.015478537
202	0xbe328210	-0.17432427
203	0xbdb85797	-0.090010814
204	0x3daabf2a	0.08337243
205	0xbddf83ce	-0.109138116
206	0xbbc59b51	-0.006030478
207	0xbab40af8	-0.0013736179
208	0x3a216b05	0.000615761
209	0xbe4a010e	-0.19726965
210	0xbb934e93	-0.0044954508
211	0xbdb4ebde	-0.088340506
212	0xbda9b774	-0.08286944
213	0xbe349943	-0.1763659
214	0xbdd9e3c4	-0.10639146
215	0xbe546364	-0.2074104
216	0x3d8332be	0.06406163
217	0x3dbf91e7	0.093540005
218	0xbdd97c3d	-0.106194
219	0xbe0762eb	-0.13221328
220	0xbdbdfdb1	-0.092769034
221	0xbdecbc37	-0.11559337
222	0xbb7139df	-0.0036808176
223	0xbe017e4e	-0.12645838
224	0xbd88df8d	-0.06683264
225	0x3ca2b435	0.01986132
226	0xbde48f36	-0.11160128
227	0xbe1d9a8e	-0.15390989
228	0xbe2a9d94	-0.16661674
229	0xbc289d47	-0.010291404
230	0xbe0e1775	-0.13876136
231	0x3d9953e9	0.07486708
232	0x3c67eac9	0.014155098
233	0xbc4c1952	-0.012457209
234	0x3d7a822f	0.06115931
235	0xbe162590	-0.14662766
236	0xbc0c4b74	-0.008562911
237	0xbdc6bd40	-0.09704065
238	0x3d125161	0.03572214
239	0xbd834442	-0.064095035
240	0xbce75990	-0.028240949
241	0xbdf78bac	-0.12087187
242	0xbe3430b9	-0.17596711
243	0xbd296ab7	-0.041361537
244	0xbddea8ee	-0.108720645
245	0x3da05e97	0.078305416
246	0xbbb06bff	-0.005383968
247	0xbbe3948b	-0.006945198
248	0xbe3e1f92	-0.1856673
249	0xbe93ea66	-0.2888977
250	0xbd1c439f	-0.038150426
251	0xbd910c5c	-0.070824355
252	0xbd39d9b4	-0.045373634
253	0xbc49d9fb	-0.012320037
254	0x3d98c826	0.0746005
255	0xbd4be90c	-0.049782798

fc2.bias f4 [96]
0	0xbe87c7d0	-0.26519632
1	0x3effd8a3	0.49969968
2	0xbd8b35bc	-0.067973584
3	0xbdc70deb	-0.097194515
4	0x3f07137a	0.52764094
5	0x3e86ccea	0.26328212
6	0x3e891dc6	0.26780528
7	0xbdb832a9	-0.08994038
8	0xbdb7ca2b	-0.08974107
9	0x3eb7b8f8	0.35883307
10	0x3efc8bb9	0.4932535
11	0xbe1694a9	-0.14705147
12	0xbe49d7fe	-0.197113
13	0xbe169a20	-0.14707232
14	0x3f186e0d	0.59542924
15	0x3e6f80ee	0.23389027
16	0x3f222ab7	0.6334643
17	0xbda6f652	-0.081524506
18	0x3ee03dc5	0.43797126
19	0xbdcf2450	-0.10114348
20	0xbe2072d6	-0.15668806
21	0x3eb5725f	0.3543882
22	0xbe4d8041	-0.20068456
23	0xbc18ce49	-0.009326526
24	0xbe2b3b58	-0.16721857
25	0xbeac53c5	-0.3365766
26	0x3e807712	0.25090843
27	0xbe0d7006	-0.13812265
28	0x3f80d9cb	1.0066465
29	0x3e36ac02	0.17839053
30	0x3cf304a1	0.029665293
31	0xbe27ba22	-0.16379598
32	0x3f101c35	0.5629304
33	0x3efd1d78	0.49436545
34	0x3f092605	0.5357364
35	0x3ef1f247	0.47255155
36	0xbe00beed	-0.12572832
37	0xbd6fa422	-0.05850614
38	0x3eb72e64	0.3577758
39	0x3f10d898	0.56580496
40	0xbe421310	-0.18952584
41	0x3ebd597e	0.3698234
42	0x3e92424f	0.28566214
43	0x3eaa2dac	0.3323797
44	0x3e92f2ba	0.2870081
45	0x3e83d40d	0.2574772
46	0x3e37b7e0	0.17941236
47	0xbe155121	-0.1458173
48	0xbec7e34e	-0.39040607
49	0x3e000513	0.12501936
50	0xbda12d9d	-0.07870028
51	0xbe06fe64	-0.1318298
52	0x3e877d8a	0.26462966
53	0xbe914265	-0.28370968
54	0x3e531653	0.20613985
55	0x3f0b6247	0.54446834
56	0x3e7a7dfe	0.24462125
57	0xbe327c41	-0.17430212
58	0x3ec01b66	0.37520903
59	0x3f80eead	1.0072838
60	0x3e8f8214	0.2802893
61	0xbde816c8	-0.1133247
62	0xbdb023e5	-0.08600596
63	0x3eb1657d	0.34647742
64	0x3e811b3f	0.252161
65	0x3e7641e1	0.24048568
66	0x3f17a4e1	0.5923596
67	0xbdf93233	-0.12167778
68	0xbe305b7a	-0.17222396
69	0x3d9a24ca	0.07526548
70	0x3dd47308	0.10373503
71	0xbda68bc5	-0.08132128
72	0xbe55979f	-0.2085862
73	0xbe48171f	-0.1954007
74	0xbdbbbd1e	-0.091669306
75	0xbe3bd2ac	-0.18342084
76	0x3e3063c4	0.17225558
77	0xbe2d92d6	-0.16950545
78	0x3ed05550	0.40690088
79	0x3e45034c	0.19239539
80	0x3f061b09	0.52385
81	0xbe92c91a	-0.28669053
82	0xbe1505f9	-0.1455306
83	0x3edc0051	0.4296899
84	0xbe826a6d	-0.2547182
85	0xbe382b19	-0.1798519
86	0xbd0f8ee5	-0.035048384
87	0xbeec2880	-0.4612465
88	0xbed220df	-0.41040704
89	0xbdc62f7b	-0.09677025
90	0x3e440330	0.19141841
91	0xbe0f18ab	-0.13974254
92	0xbd157b83	-0.036494743
93	0xbe321ed9	-0.1739458
94	0xbda3440f	-0.079719655
95	0x3e8d1454	0.27554572

fc3.weight f4 [1, 96]
0	0xbda1c5fa	-0.07899089
1	0x3da85659	0.082195945
2	0x3bf9c52b	0.007622381
3	0xbc18d835	-0.0093288915
4	0x3dde16a7	0.10844164
5	0x3d98313b	0.07431265
6	0x3dad7d55	0.08471171
7	0x3c439f97	0.011939905
8	0xbcea18c4	-0.028576262
9	0x3db2ebf5	0.087364115
10	0x3d75b8c7	0.05999067
11	0x3c8cd6c8	0.01719226
12	0xbbf65074	-0.007516915
13	0x3c3f6411	0.0116815725
14	0x3df61784	0.12016204
15	0x3d6da8cb	0.0580223
16	0x3da1ce07	0.07900625
17	0xbd7d73f4	-0.06187816
18	0x3de99743	0.11405804
19	0xbda95252	-0.082676545
20	0xbc4a7251	-0.012356357
21	0x3d93461a	0.07191105
22	0xbcb3cbba	-0.02194773
23	0x3c9768db	0.018482616
24	0xb982320c	-0.0002483282
25	0xbd365eb6	-0.044523917
26	0x3de63fce	0.112426385
27	0x3a74b719	0.0009335145
28	0x3e81818f	0.25294158
29	0x3ccd1136	0.02503262
30	0xbdd7ce2a	-0.105373695
31	0xbcf79047	-0.030220164
32	0x3dda4d07	0.10659223
33	0x3d896ee7	0.06710606
34	0x3dd6cddb	0.104884826
35	0x3d988468	0.074471295
36	0xbafc70d1	-0.0019259696
37	0x3c7c1412	0.0153856445
38	0x3dee99b3	0.116504095
39	0x3dc8dc21	0.09807611
40	0xbdac2ce2	-0.08406998
41	0x3dcb5444	0.09928182
42	0x3d9f2178	0.077700555
43	0x3d97cdc8	0.074122965
44	0x3d622bd9	0.055217598
45	0x3d5b75c9	0.053579126
46	0x3d834b30	0.06410825
47	0xbd3bc3d7	-0.045841064
48	0xbd6db0b4	-0.058029845
49	0x3dd2cf12	0.10293402
50	0xbde6e942	-0.11274959
51	0xbd2c7e55	-0.042112667
52	0x3d90340b	0.070411764
53	0xbe048374	-0.1294077
54	0x3db69d6e	0.08916746
55	0x3d9e6b11	0.07735265
56	0x3cfdf4d6	0.031000536
57	0xbd40da1f	-0.047083016
58	0x3d635817	0.05550393
59	0x3ec7fdb8	0.3906076
60	0x3d3acff7	0.045608487
61	0x3c0d2752	0.008615332
62	0xbd345346	-0.04402473
63	0x3d35ea72	0.044413038
64	0x3d542835	0.051796157
65	0x3caea712	0.0213199
66	0x3dce6b09	0.10079009
67	0xbb932a4b	-0.0044911257
68	0xbcaa53cf	-0.020791916
69	0xbce3ba12	-0.027798686
70	0x3d99536c	0.074866146
71	0xbde2eec9	-0.11080701
72	0xbb5b0324	-0.003341862
73	0xbd8aacc9	-0.067712374
74	0xbdc7b8e8	-0.09752065
75	0x3c330e86	0.010928756
76	0x3d39bbd3	0.04534514
77	0x3d9e1318	0.077184856
78	0x3db2c142	0.08728267
79	0x3d80e71d	0.06294081
80	0x3e0ca5bf	0.13735102
81	0xbd1fd1dc	-0.039018497
82	0xbc7af292	-0.015316622
83	0x3d79f24e	0.061022095
84	0xbd8943a3	-0.06702354
85	0xbbfc4c84	-0.007699551
86	0xbdfb4125	-0.12268285
87	0xbdb376de	-0.087629065
88	0xbd016aea	-0.0315961
89	0xbc2ee3f9	-0.01067447
90	0x3d0d7693	0.03453691
91	0xbca3a4bc	-0.019976012
92	0xbcc4d579	-0.024027573
93	0x3ca57f01	0.020202162
94	0xbe11f981	-0.14255334
95	0x3cbf9409	0.023386018
